train_result/A300_i100_o10_sub100/model_2024-09-10_15-35-30.pth (torch, 714299 bytes, 32 tensors)

project_inp.weight f4 [64, 314]
-0.04318405 0.02630037 -0.040991288 0.03803731 0.06678612 -0.035246994 -0.024077635 0.01751794
-0.008194495 0.036644384 0.004866899 0.066753864 -0.062656224 -0.050205354 0.023654029 -0.031148484
0.017673286 -0.020240419 -0.061223842 0.041839425 -0.022916801 0.023912162 -0.041665416 0.0034241732
0.038082756 -0.030057823 -0.044456914 0.016949313 -0.036677927 0.0145258065 -0.010314754 0.032091223
0.040826075 -0.01923941 0.026656961 0.04592654 0.016286591 -0.021909267 -0.032033447 0.005821964
-0.0031847353 0.03613616 0.041105986 -0.014362215 -0.029647795 0.047170088 -0.028655583 0.00941022
-0.024821464 -0.020841707 0.058967005 -0.0011357648 0.06534555 -0.0070122564 -0.0131059885 0.06707167
0.045155242 0.06669046 0.06134293 -0.032372825 0.041104175 0.011894386 0.02808646 0.03667701
0.039516658 -0.013432757 -0.024025146 0.044580992 0.060763612 -0.008635277 0.017878314 -0.014266874
-0.02279739 -0.03908018 0.046923026 0.04183923 0.012085258 -0.033554994 -0.037928406 0.0033440373
0.039052535 0.046226636 0.0478218 -0.0035859633 0.010301919 -0.009067151 0.0054662814 -0.052140623
-0.04800031 -0.019516885 -0.03119664 0.0009215231 0.022336552 0.047337122 -0.011148082 0.022504799
0.022372358 -0.00077680923 -0.041707538 0.023581285 0.02801744 -0.010477207 -0.02380952 -0.033010446
0.031395342 0.011325233 0.02627932 -0.05732605 0.00017625288 0.066536225 0.05859684 -0.044919666
-0.028770525 -0.008459358 0.014062984 0.00981583 0.031473912 -0.0002358612 -0.00058074616 -0.05763465
-0.04129396 0.011979723 0.038025267 -0.037593603 -0.012432192 -0.013292662 -0.03086753 0.023541683
0.03827566 -0.021982422 0.044541582 -0.015860038 0.04859765 0.0562142 0.0025950524 -0.04006083
0.060755357 0.011733078 0.013061566 -0.013776358 -0.05803482 -0.039310567 -0.005568902 -0.050871804
-0.062181607 0.02572242 0.041650288 -0.050861284 -0.067008175 -0.059454896 0.018482069 0.031145684
0.065725535 0.01628097 -0.041337702 -0.048084296 -0.015559906 -0.060270324 -0.026225556 0.020073663
-0.028810574 -0.04292477 0.039129145 -0.043503795 -0.0014191933 -0.06786014 -0.04532826 -4.029062e-05
-0.03512362 -0.039556243 -0.022512352 0.023326937 0.014947644 0.04581282 0.0046013547 0.045055788
-0.031462852 0.03151384 -0.02089064 0.032653198 0.039572217 0.002775441 0.015753878 -0.0143068405
0.0304572 -0.025334049 0.03734755 0.061539154 -0.043903608 0.014040711 -0.025021812 -0.025564745
0.020303175 0.015337177 0.06729007 -0.038073312 0.029712249 -0.0393007 -0.042280186 -0.006937329
-0.03737002 0.020251855 0.028107552 0.04318045 -0.027559323 0.0029811785 -0.035959247 0.02300744
0.031117404 -0.017590547 0.009458941 0.054739 -0.03569096 0.05637177 -0.017666876 -0.018419867
0.023967275 -0.022592254 -0.019911133 0.064114414 0.007443601 0.025963716 0.06221815 0.030843787
0.06014388 0.06558647 0.015476566 0.02852508 0.04293482 -0.0374605 -0.06190853 -0.026974417
0.039605495 -0.04087084 -0.005507545 -0.044707388 -0.009442201 0.046153728 0.03412034 -0.04851218
0.008917396 0.04463055 0.020921225 -0.023549099 0.02564938 0.03667481 -0.022951515 -0.051568814
-0.027761444 -0.036208928 -0.044794906 -0.01876338 -0.039620526 0.06648823 0.014922271 0.04555092
00000000: c2e1 30bd e073 d73c 7be6 27bd 03cd 1b3d
00000010: 29c7 883d 275f 10bd 763e c5bc c881 8f3c
00000020: 3442 06bc 6c18 163d 827a 9f3b 40b6 883d
00000030: e851 80bd 21a4 4dbd 18c6 c13c 1b2b ffbc
00000040: 91c7 903c 3ccf a5bc dac5 7abd d15f 2b3d
00000050: 04bc bbbc 70e3 c33c 5ba9 2abd 1868 603b
00000060: aafc 1b3d d33b f6bc 7418 36bd 49d9 8a3c
00000070: 983b 16bd a6fd 6d3c 37ff 28bc 1672 033d
00000080: 3e39 273d f89b 9dbc b35f da3c 781d 3c3d
00000090: 756b 853c 107b b3bc 8135 03bd 2cc6 be3b
000000a0: feb6 50bb 8303 143d c05e 283d 7f4f 6bbc
000000b0: efdf f2bc 6c35 413d 1dbf eabc 532d 1a3c
000000c0: 6256 cbbc 3abc aabc 6387 713d f1dd 94ba
000000d0: e3d3 853d 12c7 e5bb 80ba 56bc df5c 893d
000000e0: b4f4 383d 0295 883d b942 7b3d 5e99 04bd
000000f0: da5c 283d ace0 423c 9315 e63c a23a 163d
00000100: 38dc 213d 1115 5cbc 62d0 c4bc 8f9a 363d
00000110: 44e3 783d fa7a 0dbc 8b75 923c 9bbf 69bc
00000120: 98c1 babc 8a12 20bd 5c32 403d 9d5f 2b3d
00000130: 3f01 463c f670 09bd d15a 1bbd a327 5b3b
00000140: 8df5 1f3d 2458 3d3d cbe0 433d 7b02 6bbb
00000150: 61c9 283c 638e 14bc 7e1e b33b 6891 55bd
00000160: f99b 44bd e0e1 9fbc 1990 ffbc 5e92 713a
00000170: 25fb b63c 92e4 413d 72a6 36bc fc5b b83c
00000180: 3c46 b73c c9a2 4bba 86d5 2abd 8a2d c13c
00000190: d584 e53c 97a8 2bbc 2f0c c3bc f635 07bd
000001a0: 6798 003d 788d 393c ba47 d73c b8ce 6abd
000001b0: 86d0 3839 2544 883d 3d03 703d affd 37bd
000001c0: 2ab0 ebbc 1e99 0abc 6e68 663c 93d2 203c
000001d0: caea 003d 8251 77b9 373d 18ba 5012 6cbd
000001e0: db23 29bd 9a46 443c 62c0 1b3d c0fb 19bd
000001f0: 65b0 4bbc 77c9 59bc e7dd fcbc 7dda c03c
00000200: f0c6 1c3d 7b14 b4bc 3c71 363d e9ec 81bc
00000210: 540e 473d dc40 663d c111 2a3b d316 24bd
00000220: 9cda 783d 193c 403c 2e00 563c 3cb6 61bc
00000230: ebb5 6dbd 1e04 21bd 567b b6bb f45e 50bd
00000240: 24b2 7ebd d3b7 d23c 7e99 2a3d ec53 50bd
00000250: 953b 89bd fa86 73bd b567 973c 3c25 ff3c
00000260: 1c9b 863d ab5f 853c b951 29bd 0af4 44bd
00000270: faee 7ebc 04de 76bd fad6 d6bc 8671 a43c
00000280: 2704 ecbc e2d1 2fbd e245 203d 0931 32bd
00000290: 3a04 baba 42fa 8abd 20aa 39bd b9fd 28b8
000002a0: c9dd 0fbd ba05 22bd d36b b8bc 2218 bf3c
000002b0: f7e6 743c 39a6 3b3d f6c6 963b 6b8c 383d
000002c0: 31df 00bd a814 013d d922 abbc 5cbf 053d
000002d0: 7a16 223d 2ce4 353b 470e 813c 3d67 6abc
000002e0: 6181 f93c 5a89 cfbc bff9 183d 7b10 7c3d
000002f0: 45d4 33bd 030b 663c 8bfa ccbc 286d d1bc
00000300: d852 a63c c848 7b3c 60cf 893d c3f2 1bbd
00000310: 1a67 f33c c5f9 20bd fd2d 2dbd 8952 e3bb
00000320: 4e11 19bd 38e7 a53c cf41 e63c fcdd 303d
00000330: 17c4 e1bc e05f 433b 014a 13bd 197a bc3c
00000340: ede9 fe3c 0d1a 90bc adf9 1a3c 0036 603d
00000350: af30 12bd 16e6 663d 20ba 90bc 43e5 96bc
00000360: 0557 c43c 6413 b9bc ac1c a3bc 6b4e 833d
00000370: 73e9 f33b dcb1 d43c 75d8 7e3d 1cac fc3c
00000380: 6e59 763d 3352 863d 6c91 7d3c 6ead e93c
00000390: 6cdc 2f3d 2e70 19bd cc93 7dbd 74f9 dcbc
000003a0: 5f39 223d 2f68 27bd a378 b4bb 181f 37bd
000003b0: 76b3 1abc b10b 3d3d c5c1 0b3d b5b4 46bd
000003c0: 451a 123c 86ce 363d fd62 ab3c 0aea c0bc
000003d0: a61e d23c 5338 163d d104 bcbc d239 53bd
000003e0: f86b e3bc d04f 14bd dd7a 37bd a9b5 99bc
000003f0: 2249 22bd fb2a 883d 8a7c 743c 9a93 3a3d

project_inp.bias f4 [64]
-0.045111377 -0.047920413 -0.009346236 0.014895338 -0.007059694 -0.022373 -0.07156098 0.01597306
0.020741666 -0.029237872 -0.048133418 0.03712168 -0.026573246 0.005012191 0.016447503 0.049310144
-0.016709127 0.033517055 0.0086736465 -0.06552417 -0.040801942 0.024740268 -0.04197911 -0.043176383
0.010428011 -0.044464193 0.040353723 0.03704215 0.046241466 -0.022413613 0.04791871 -0.060825948
0.008383916 0.025851162 0.011049842 -0.05123881 0.014429325 -0.054298036 -0.04588166 -0.022811662
0.0100530125 -0.06518238 -0.055309273 -0.0031450195 -0.055448163 -0.093156144 -0.0001082342 -0.017131401
-0.0150747765 0.0144121405 0.029736022 0.005893615 -0.03643295 -0.019306295 -0.03147521 -0.0066192015
-0.016303308 -0.03590241 0.038988017 -0.006296136 -0.06150997 -0.05530533 -0.05122137 -0.041354254
00000000: b5c6 38bd 3248 44bd f420 19bc 930b 743c
00000010: 0155 e7bb 9547 b7bc 908e 92bd efd9 823c
00000020: 6dea a93c 4384 efbc 8c27 45bd e70c 183d
00000030: 23b0 d9bc 4e3d a43b eabc 863c 6ff9 493d
00000040: 94e1 88bc 2e49 093d e91b 0e3c 8931 86bd
00000050: f01f 27bd 1aac ca3c 4af2 2bbd b8d9 30bd
00000060: 40da 2a3c 1620 36bd f249 253d 82b9 173d
00000070: b167 3d3d c19c b7bc 6946 443d a124 79bd
00000080: b15c 093c d1c5 d33c 660a 353c c9df 51bd
00000090: fa68 6c3c 9e67 5ebd 68ee 3bbd 86df babc
000000a0: 64b5 243c 577e 85bd fa8b 62bd ac1c 4ebb
000000b0: 9d1d 63bd a6c8 bebd cbfb e2b8 2757 8cbc
000000c0: 32fc 76bc e620 6c3c f598 f33c 3a1f c13b
000000d0: b83a 15bd 3c28 9ebc 26ec 00bd e3e5 d8bb
000000e0: 848e 85bc 680e 13bd e6b1 1f3d d14f cebb
000000f0: e1f1 7bbd d787 62bd 80cd 51bd 1463 29bd

transformer_encoder.0.self_attn.in_proj_weight f4 [192, 64]
0.11240993 -0.15606038 -0.07197971 0.1531759 -0.12704 -0.04770879 0.0957779 0.13476929
0.032948997 -0.14368421 0.045811344 -0.018434009 0.0992095 -0.10803784 -0.03165132 -0.07807338
-0.07245217 0.13260725 -0.13992904 -0.14204438 0.1024321 0.08527349 0.1177022 -0.15538247
-0.16342136 -0.043048978 -0.039809268 -0.120187975 0.13022341 -0.15019558 0.023470094 0.10908934
-0.1213706 -0.06799479 -0.06196353 0.05377076 -0.127624 0.04437597 0.044151746 0.11918792
-0.0501947 0.016373483 0.05369904 0.11272022 0.005518585 -0.10785423 0.087577924 0.13526592
-0.054011226 0.045531556 -0.14526843 0.009141609 -0.0012917407 -0.122141644 0.18506181 0.04731888
-0.011083001 -0.14308834 -0.061264638 0.116331786 0.0054940595 -0.036539827 0.026535628 0.02483329
-0.15380959 -0.04774828 0.1561281 -0.16410209 -0.0800707 -0.13091381 -0.10022126 -0.08872657
0.053510997 0.000986251 -0.10417923 -0.15709218 -0.07095853 0.0060752514 0.008056186 0.051679645
0.12929761 0.04469792 0.116951734 -0.07682016 0.02024055 -0.009278528 -0.07257739 -0.036435444
0.10162128 0.0672388 -0.012643054 -0.09281066 0.11384078 -0.14048345 -0.1316823 0.032821257
0.113283 -0.108001135 -0.12515226 -0.08478062 0.08147802 0.047802124 -0.019118901 -0.13809572
-0.09537458 0.041123953 -0.018239625 0.120559186 -0.0022003984 0.061333228 0.054416668 -0.14912838
0.091874644 -0.07376064 -0.05047884 -0.018370692 -0.15733418 0.1331004 -0.07203937 0.1107721
0.055553235 -0.05883753 0.13022563 -0.07879879 0.108867906 -0.16573325 -0.050526388 0.12449956
0.032109704 -0.0019311243 0.10340279 0.10242916 -0.11346846 0.09187595 -0.06233389 0.11829679
0.12052432 -0.11755289 0.041998867 0.109804936 0.01103743 -0.05678842 0.0038715673 0.13038066
-0.122137226 -0.03263093 -0.0011422973 0.05440982 -0.07035911 -0.10146207 0.07038581 -0.094589636
-0.07095559 -0.11812512 0.116420455 -0.10423248 -0.085986376 0.014820546 -0.065646805 -0.14035594
-0.036809523 -0.0060085696 0.011754732 -0.082005516 0.11424561 0.027066465 0.07052693 -0.10337823
-0.06529519 0.103919946 0.034721334 0.1146138 0.13530436 0.013931107 -0.056162458 -0.008963449
-0.078509144 0.04110216 -0.009078077 -0.076574296 0.089247964 -0.039472662 -0.12071974 0.011843798
-0.126949 -0.12932344 -0.061324652 0.120685294 -0.12057948 0.14997612 0.09696341 -0.01769906
-0.008229506 0.08617165 0.12374421 -0.08444624 0.07092369 -0.13931878 0.1076754 0.1172208
-0.08682864 0.09649815 0.10286583 -0.016745554 0.051133 -0.042492382 0.100734726 0.07258177
-0.07459135 0.11919328 -0.14850014 0.06479811 0.08504989 0.036393333 -0.13133292 0.14605907
0.13282526 -0.052032948 0.09737466 -0.0041135876 -0.15137784 -0.02490827 0.14490542 0.028145796
-0.04601033 -0.079433136 -0.1237064 0.092841886 -0.16657507 0.0020866257 -0.05097091 -0.11907987
-0.022743039 -0.10015857 -0.16079089 0.0639356 0.04696115 0.058315124 0.07673232 -0.04720777
0.048109643 -0.0134781385 -0.07735051 0.03146626 0.07837795 0.042998224 -0.0030542882 -0.06390941
-0.07320772 0.009809172 -0.09164669 0.12921073 0.00070104544 0.055672288 -0.14196233 0.10803917
00000000: 2d37 e63d 4bce 1fbe 196a 93bd 25da 1c3e
00000010: c616 02be 4b6a 43bd 3427 c43d f600 0a3e
00000020: 87f5 063d f421 13be ada4 3b3d eb02 97bc
00000030: 5a2e cb3d f142 ddbd d1a4 01bd f0e4 9fbd
00000040: ce61 94bd 32ca 073e 8f49 0fbe 1574 11be
00000050: ecc7 d13d dea3 ae3d da0d f13d 951c 1fbe
00000060: ee57 27be 2054 30bd 0b0f 23bd 1d25 f6bd
00000070: 4959 053e dfcc 19be 5b44 c03c 3b6a df3d
00000080: 2691 f8bd da40 8bbd 78cd 7dbd ba3e 5c3d
00000090: deaf 02be 94c3 353d 76d8 343d cc18 f43d
000000a0: f598 4dbd af21 863c 86f3 5b3d dcd9 e63d
000000b0: 3fd5 b43b aee2 dcbd 0e5c b33d 2683 0a3e
000000c0: e03a 5dbd 4c7f 3a3d 3fc1 14be b0c6 153c
000000d0: a04f a9ba 6625 fabd d880 3d3e 71d1 413d
000000e0: 7a95 35bc c085 12be a1f0 7abd 5c3f ee3d
000000f0: 8307 b43b c9aa 15bd 3f61 d93c 2f6f cb3c
00000100: 4380 1dbe b393 43bd 0be0 1f3e 610a 28be
00000110: 1bfc a3bd 450e 06be ce40 cdbd 47b6 b5bd
00000120: 592e 5b3d 1845 813a ec5b d5bd c6dc 20be
00000130: b552 91bd e712 c73b 18fe 033c 09ae 533d
00000140: 9866 043e 2b15 373d 6484 ef3d e353 9dbd
00000150: 83cf a53c f804 18bc 74a3 94bd 553d 15bd
00000160: d11e d03d 7fb4 893d d024 4fbc 8413 bebd
00000170: 5b25 e93d e5da 0fbe bad7 06be 956f 063d
00000180: eb00 e83d b32f ddbd ea27 00be 76a1 adbd
00000190: f3dd a63d 29cc 433d 3e9f 9cbc f768 0dbe
000001a0: bf53 c3bd 9771 283d 446b 95bc bce7 f63d
000001b0: 8f34 10bb 8d38 7b3d 03e4 5e3d 1cb5 18be
000001c0: c628 bc3d d20f 97bd e6c2 4ebd 227e 96bc
000001d0: 361c 21be 794b 083e 6189 93bd 7cdc e23d
000001e0: ca8b 633d 9fff 70bd de59 053e 4361 a1bd
000001f0: 23f6 de3d fab5 29be c2f4 4ebd a0f9 fe3d
00000200: 7785 033d c71d fdba d8c4 d33d 61c6 d13d
00000210: 2762 e8bd 7529 bc3d d251 7fbd 9645 f23d
00000220: 74d5 f63d 92bf f0bd 0107 2c3d 69e1 e03d
00000230: 56d6 343c f99a 68bd 1fba 7d3b 8282 053e
00000240: 1523 fabd 03a8 05bd 23b9 95ba d5dc 5e3d
00000250: 7018 90bd 59cb cfbd 7026 903d 36b8 c1bd
00000260: 2a51 91bd 95eb f1bd d96d ee3d d777 d5bd
00000270: a019 b0bd e0d1 723c d571 86bd 78b9 0fbe
00000280: 95c5 16bd 89e3 c4bb eb96 403c 82f2 a7bd
00000290: 9af9 e93d 7eba dd3c 6c70 903d f7b7 d3bd
000002a0: 7cb9 85bd fbd3 d43d f537 0e3d a4ba ea3d
000002b0: 3a8d 0a3e 4c3f 643c 9b0a 66bd 6edb 12bc
000002c0: 67c9 a0bd bd5a 283d 37bc 14bc fcd2 9cbd
000002d0: a3c7 b63d 16ae 21bd e93b f7bd 7d0c 423c
000002e0: ebfe 01be 5d6d 04be 8f2f 7bbd da29 f73d
000002f0: 60f2 f6bd 5793 193e c194 c63d 9efd 90bc
00000300: 0dd5 06bc c37a b03d 9b6d fd3d 26f2 acbd
00000310: 7140 913d 95a9 0ebe ec84 dc3d 7511 f03d
00000320: 37d3 b1bd d2a0 c53d 52ab d23d f92d 89bc
00000330: d670 513d 7e0c 2ebd 024e ce3d c0a5 943d
00000340: 5ac3 98bd 9b1b f43d 6c10 18be dfb4 843d
00000350: a32e ae3d 2d11 153d 237c 06be 8290 153e
00000360: 5803 083e 8020 55bd 5e6c c73d 46cb 86bb
00000370: cb02 1bbe 6e0c ccbc 1662 143e 0392 e63c
00000380: 5475 3cbd d7ad a2bd c859 fdbd e323 be3d
00000390: a892 2abe c5bf 083b dfc6 50bd 26e0 f3bd
000003a0: 9c4f babc f01f cdbd 5ea6 24be abf0 823d
000003b0: 565a 403d d7db 6e3d d625 9d3d ef5c 41bd
000003c0: 9e0e 453d 69d3 5cbc f269 9ebd c4e2 003d
000003d0: 9e84 a03d e81e 303d 742a 48bb f0e2 82bd
000003e0: eeed 95bd a6b6 203c 43b1 bbbd d14f 043e
000003f0: 5dc6 373a a008 643d 935e 11be a443 dd3d

transformer_encoder.0.self_attn.in_proj_bias f4 [192]
0.013395438 -0.008836468 0.01070908 0.0051477468 -0.008928289 -0.008738484 0.011418027 0.009453296
-0.00035862962 0.009131403 -0.007832392 -0.016250372 0.019009018 -0.0058828997 0.0045967153 -0.0003952632
0.008100868 0.007891056 -0.0067317747 -0.0026917448 -0.0016495285 0.0064644055 -0.013660003 0.0040929485
0.010977579 0.0014585966 -0.0031537365 0.003784361 -0.005209161 0.009913766 0.013813063 -0.010955178
-0.0068330253 0.01868238 -0.0030541809 0.004491888 -0.0069013108 0.0105472775 0.0043487553 -0.011141818
0.018738808 0.010256663 0.0007074108 -0.005840862 -0.009474835 0.01551649 0.0056552924 -0.0048733503
0.005934572 0.017401332 -0.0035962868 -0.011259879 0.015750939 -0.008675848 -0.020714844 0.0039940444
-0.0050051543 0.009816039 0.001871282 -0.0019305653 0.013039364 -0.007086087 0.0035163066 0.010860675
0.00053471065 -0.0008319352 0.00071740773 -0.00091172656 0.00018460813 -0.0006660982 0.00078131363 -0.00028543707
-0.00085604837 -0.00037348995 -0.00018661289 -0.00041733152 1.9340165e-05 -2.8506659e-06 0.00021529206 -0.00026217158
0.0010723876 0.00017594252 -0.0010579218 -0.0009593324 -8.258236e-05 -0.0005027666 -0.0004661991 -0.00026580103
0.0006288117 0.00028143593 0.0005440677 0.0002922562 0.00024046941 -0.00026203913 0.0001809282 0.0005676636
0.00077240693 0.0004558471 0.00075303594 0.0005260723 0.00052587315 -0.0003660268 -0.00015855218 -4.673634e-05
0.0002096546 0.00035112072 -0.0001580047 -0.00049965014 -0.0004162256 -7.765895e-05 0.00080633635 0.0007016874
0.00034781563 -0.00019965129 -0.00030109673 -0.00032290493 0.0006046144 0.0008137903 0.00071870745 -0.00012135583
0.00025910436 -0.00045114418 -3.4112163e-05 0.00071035995 0.00016564428 -7.185724e-05 -0.00034773783 0.00059894373
-0.009669233 -0.0043227472 -0.021708116 -0.000413558 0.013258356 0.007554356 0.018344661 -0.0103028035
0.0004904884 0.018082082 0.0071131373 0.017451432 -0.016892886 0.017168213 -0.0068620304 0.010630104
-0.016441949 -0.019401342 0.010354306 0.0180145 -0.012945412 -0.019217711 0.0048760734 0.0018632527
0.005577322 0.016229933 0.013522701 -0.011701075 0.004905643 0.013259136 0.012154768 -0.014969696
-0.014554134 0.01028685 -0.001989954 0.017090691 0.0057709096 0.0007120655 -0.016350962 -0.017150873
0.015677588 0.009995994 0.01009356 0.008466467 -0.0012933078 -0.009943578 -0.008067993 0.011000153
-0.00079539325 -0.023062117 -0.020169584 0.010505279 0.01940484 0.009973185 0.016481822 -0.016943114
0.015563862 0.00096369284 -0.011351605 0.007236099 -0.004364055 0.013853386 0.0065581533 0.007945774
00000000: 8a78 5b3c d5c6 10bc 2375 2f3c 6eae a83b
00000010: f547 12bc dc2b 0fbc ad12 3b3c ffe1 1a3c
00000020: 7406 bcb9 e19b 153c 6f53 00bc 801f 85bc
00000030: cdb8 9b3c 57c5 c0bb 0ba0 963b 543b cfb9
00000040: 81b9 043c 7d49 013c 3896 dcbb fc67 30bb
00000050: fe34 d8ba 5dd3 d33b 35ce 5fbc 241e 863b
00000060: 4edb 333c 612e bf3a ebae 4ebb 0b03 783b
00000070: 9cb1 aabb 596d 223c 2f50 623c 597d 33bc
00000080: 92e7 dfbb ca0b 993c a728 48bb b030 933b
00000090: 6424 e2bb 7dce 2c3c 0180 8e3b 2c8c 36bc
000000a0: 2182 993c 900b 283c 8971 393a b464 bfbb
000000b0: 573c 1bbc e038 7e3c 0850 b93b a0b0 9fbb
000000c0: cc76 c23b 3d8d 8e3c aeaf 6bbb 5b7b 38bc
000000d0: 1d08 813c 2525 0ebc 2db2 a9bc 79e0 823b
000000e0: 4702 a4bb 74d3 203c ce45 f53a 060b fdba
000000f0: 0ea3 553c 6832 e8bb d671 663b f9f0 313c
00000100: d32b 0c3a 3a16 5aba 6b10 3c3a ef00 6fba
00000110: 5e93 4139 189d 2eba 12d1 4c3a b7a6 95b9
00000120: 6f68 60ba f9d0 c3b9 84ad 43b9 4acd dab9
00000130: b03c a237 114e 3fb6 06c0 6139 1374 89b9
00000140: 5b8f 8c3a 367d 3839 f7a9 8aba b57b 7bba
00000150: 1130 adb8 18cc 03ba 2f6c f4b9 365b 8bb9
00000160: d7d6 243a b18d 9339 c49f 0e3a f739 9939
00000170: 8426 7c39 4c62 89b9 8bb7 3d39 42cf 143a
00000180: 5a7b 4a3a c3fe ee39 6367 453a 1de8 093a
00000190: c0da 093a 49e7 bfb9 0741 26b9 c306 44b8
000001a0: bad6 5b39 a016 b839 10ae 25b9 f4fa 02ba
000001b0: db38 dab9 d5dc a2b8 5160 533a 72f1 373a
000001c0: 065b b639 7c59 51b9 85dc 9db9 914b a9b9
000001d0: fc7e 1e3a 8b54 553a a467 3c3a 6a80 feb8
000001e0: 66d8 8739 8c87 ecb9 a813 0fb8 7337 3a3a
000001f0: ccb0 2d39 10b2 96b8 9550 b6b9 6f02 1d3a
00000200: b46b 1ebc d5a5 8dbb 38d5 b1bc d1d2 d8b9
00000210: 9339 593c 888a f73b 8b47 963c 17cd 28bc
00000220: 1f94 003a e020 943c 5215 e93b 4ef6 8e3c
00000230: f362 8abc 5aa4 8c3c e2da e0bb e329 2e3c
00000240: 44b1 86bc 90ef 9ebc 1ba5 293c 2593 933c
00000250: fe18 54bc 766e 9dbc 78c7 9f3b 6338 f43a
00000260: f8c1 b63b a3f4 843c 528e 5d3c deb5 3fbc
00000270: 84bf a03b d93c 593c cb24 473c 7543 75bc
00000280: 7674 6ebc 2d8a 283c e369 02bb c701 8c3c
00000290: e619 bd3b e8a9 3a3a 74f2 85bc fd7f 8cbc
000002a0: 496e 803c 3dc6 233c 765f 253c f0b6 0a3c
000002b0: 3584 a9ba 64ea 22bc 9e2f 04bc fc39 343c
000002c0: f081 50ba c4ec bcbc af3a a5bc 551e 2c3c
000002d0: e6f6 9e3c 9266 233c e304 873c 49cc 8abc
000002e0: 92ff 7e3c 55a0 7c3a 15fc 39bc cc1c ed3b
000002f0: 5900 8fbb 50f9 623c c7e5 d63b fe2e 023c

transformer_encoder.0.self_attn.multihead_attn.in_proj_weight f4 [192, 64]
-0.1343985 -0.07708482 0.03869655 -0.018879596 -0.00094019464 0.01997572 -0.045886185 0.10502593
-0.025219506 0.06069654 0.10570884 0.04396056 -0.11996187 0.09799068 -0.046795826 0.1108948
0.12154685 -0.13878895 0.027332462 0.051200107 0.008340583 -0.16187392 -0.084103465 -0.12702799
-0.057057872 -0.008567448 -0.10775835 -0.15247631 0.034524854 0.043528132 0.09496531 0.08600887
0.10158035 0.016490513 -0.07681919 0.13037698 -0.093897715 0.02642377 -0.118545175 -0.042385466
-0.14436758 -0.08457802 0.017357036 -0.06709782 0.018632006 -0.071688086 -0.021835173 -0.09458291
0.07738371 0.08132265 -0.009896068 0.14974654 -0.073992714 -0.01784007 -0.075206764 0.040240128
-0.1229006 -0.078899994 0.14288929 0.12947759 -0.028725319 0.0771454 0.13988264 0.030648809
-0.06384638 -0.05944594 0.028354187 -0.15222487 0.08593913 0.0382016 0.13246344 -0.13628629
0.01709515 0.10525249 -0.115948014 -0.05770331 -0.0150370505 -0.10343473 -0.0845337 -0.13140623
0.10387374 -0.10588715 -0.049990278 -0.1251751 0.056786444 0.11887537 0.03177282 -0.04288033
0.09352501 -0.0025549748 0.06088128 -0.025373774 -0.14319515 0.10245061 -0.00917378 -0.03224793
-0.05270847 0.021162985 -0.1082918 0.050853945 -0.102323435 -0.015638867 0.10868199 -0.020902073
0.12155145 -0.09962244 -0.077960536 0.0026153026 -0.1449121 0.03642443 -0.039760813 -0.027227147
-0.056483883 0.090314135 -0.028426455 0.043388076 -0.07135231 0.13924238 0.09879481 -0.11951359
-0.15036032 -0.064454295 0.031006131 -0.13195233 0.113552004 -0.052109476 0.10188497 0.006496548
-0.03607025 -0.14756921 -0.13860373 0.12668349 -0.028474009 -0.06933553 -0.13442355 0.13205712
-0.03445505 0.10647582 0.053067796 0.04765222 -0.08067767 -0.017902719 -0.078958124 0.061999734
0.05830833 0.12543073 0.013587497 0.113735214 -0.08809654 -0.068075776 -0.0068076886 -0.023139881
0.14130409 0.06666449 -0.12684317 -0.108640745 0.06621153 -0.102010235 -0.09821697 -0.0023282403
0.073424675 -0.032848153 -0.15925397 0.0617846 -0.044101607 0.11804969 -0.1258943 -0.12536481
0.09945298 0.08488619 0.14276384 0.054239716 0.076892704 0.016620094 0.07317905 0.11750121
-0.04355026 -0.15829031 -0.050436895 -0.061950482 0.023741873 -0.14281823 -0.13363193 0.036118437
-0.119201526 -0.019809276 -0.09000877 -0.10792501 -0.021668492 -0.09194167 0.15955676 -0.021771222
0.12274275 0.12245933 -0.080275 -0.02822634 -0.08373567 0.00011628306 -0.07617265 0.16527668
0.06942424 -0.008441992 -0.01444014 0.0632169 -0.034719996 -0.04170522 0.11361243 0.05238988
-0.03213971 0.08489949 0.123602524 -0.038735036 -0.12520781 -0.037229594 0.10348148 -0.039724417
0.13836367 -0.14571263 -0.11460337 0.11734622 0.038628235 0.0034159294 -0.120149225 -0.07191717
0.013662294 0.0042744963 0.08066493 0.0004438234 -0.021212839 0.16491133 -0.13393116 -0.10250157
0.09156228 -0.12993857 -0.10690801 -0.15716949 0.014607506 -0.1195826 -0.0068529285 0.12298125
0.049936417 0.11961723 -0.09161226 -0.024989316 0.086774915 0.14198723 -0.14493138 0.08783694
0.043622445 0.045450848 0.016978025 -0.06885389 0.051938422 -0.079430535 0.10680235 -0.032469362
00000000: c39f 09be a5de 9dbd 4680 1e3d 62a9 9abc
00000010: 6577 76ba 1fa4 a33c 27f3 3bbd d617 d73d
00000020: 2399 cebc ef9c 783d e07d d83d fd0f 343d
00000030: 92ae f5bd 56af c83d fbac 3fbd d01c e33d
00000040: 8eed f83d b11e 0ebe 54e8 df3c 34b7 513d
00000050: f1a6 083c 47c2 25be 703e acbd a013 02be
00000060: 84b5 69bd 7b5e 0cbc 69b0 dcbd c022 1cbe
00000070: ef69 0d3d 8e4a 323d 2c7d c23d 6b25 b03d
00000080: 5c09 d03d 1d17 873c 6153 9dbd 8b81 053e
00000090: 724d c0bd a976 d83c d0c7 f2bd 629c 2dbd
000000a0: 18d5 13be 3e37 adbd 5830 8e3c 956a 89bd
000000b0: 26a2 983c 34d1 92bd addf b2bc afb4 c1bd
000000c0: 5a7b 9e3d 7d8c a63d 1e23 22bc 2857 193e
000000d0: 7e89 97bd 5725 92bc 0106 9abd d5d2 243d
000000e0: 4fb3 fbbd 5296 a1bd 9251 123e c695 043e
000000f0: 5c51 ebbc 68fe 9d3d 653d 0f3e 3613 fb3c
00000100: e4c1 82bd 967d 73bd 0a47 e83c d6e0 1bbe
00000110: db00 b03d 4879 1c3d 7fa4 073e a28e 0bbe
00000120: 210b 8c3c 9e8e d73d 2776 edbd 4e5a 6cbd
00000130: f65d 76bc 96d5 d3bd 0120 adbd 5b8f 06be
00000140: c1bb d43d 5ddb d8bd 9bc2 4cbd e72d 00be
00000150: e798 683d ee74 f33d 3724 023d 49a3 2fbd
00000160: 0a8a bf3d 5d71 27bb a65e 793d a9dc cfbc
00000170: c0a1 12be a0d1 d13d 9f4d 16bc 6816 04bd
00000180: d6e4 57bd ff5d ad3c 17c8 ddbd 3a4c 503d
00000190: f38e d1bd 151d 80bc aa94 de3d d33a abbc
000001a0: f7ef f83d da06 ccbd c6a9 9fbd 7f65 2b3b
000001b0: d663 14be c831 153d 3cdc 22bd 770b dfbc
000001c0: a55b 67bd 9ef6 b83d 99de e8bc b2b7 313d
000001d0: 2921 92bd 8e95 0e3e ef54 ca3d 8bc3 f4bd
000001e0: 0ef8 19be 9d00 84bd 9200 fe3c 831e 07be
000001f0: f48d e83d bf70 55bd 11a9 d03d ffe0 d43b
00000200: 66be 13bd 621c 17be 23ee 0dbe 51b9 013e
00000210: 5342 e9bc c9ff 8dbd 54a6 09be fb39 073e
00000220: bd20 0dbd ff0f da3d 9e5d 593d f92e 433d
00000230: 563a a5bd b9a8 92bc ccb4 a1bd 6ff3 7d3d
00000240: b7d4 6e3d ea70 003e 189e 5e3c 02ee e83d
00000250: f56b b4bd 506b 8bbd 0813 dfbb d98f bdbc
00000260: 05b2 103e 6487 883d 2de3 01be 0a7f debd
00000270: e999 873d beea d0bd fb25 c9bd 6495 18bb
00000280: ad5f 963d c98b 06bd 7913 23be d911 7d3d
00000290: e3a3 34bd 09c4 f13d 6fea 00be a25f 00be
000002a0: 01ae cb3d d0d8 ad3d af30 123e 772a 5e3d
000002b0: ec79 9d3d dd26 883c e6de 953d 79a4 f03d
000002c0: c261 32bd db16 22be eb96 4ebd cabf 7dbd
000002d0: 517e c23c f13e 12be cfd6 08be edf0 133d
000002e0: ee1f f4bd 1047 a2bc 8556 b8bd ca07 ddbd
000002f0: 1f82 b1bc ea4b bcbd d962 233e 9059 b2bc
00000300: 8d60 fb3d f5cb fa3d 3867 a4bd ed3a e7bc
00000310: 9b7d abbd fedc f338 6800 9cbd 4a3e 293e
00000320: 4c2e 8e3d 4850 0abc 5696 6cbc dd77 813d
00000330: 8e36 0ebd 18d3 2abd a2ad e83d c596 563d
00000340: eea4 03bd c9df ad3d 5223 fd3d a1a8 1ebd
00000350: 7a36 00be 0f7e 18bd 19ee d33d 12b6 22bd
00000360: 35af 0d3e b135 15be 2cb5 eabd 3753 f03d
00000370: a438 1e3d c9dd 5f3b cc10 f6bd 4f49 93bd
00000380: d0d7 5f3c 1311 8c3b a833 a53d f8b0 e839
00000390: 8cc6 adbc 84de 283e 4025 09be 58ec d1bd
000003a0: 0185 bb3d 9e0e 05be 96f2 dabd 0af1 20be
000003b0: 5254 6f3c b9e7 f4bd 888e e0bb 98dd fb3d
000003c0: 218a 4c3d e1f9 f43d 359f bbbd 65b6 ccbc
000003d0: 0cb7 b13d 1a65 113e e468 14be dbe3 b33d
000003e0: 73ad 323d ab2a 3a3d 8015 8b3c 4503 8dbd
000003f0: 62bd 543d 7aac a2bd 31bb da3d 98fe 04bd

transformer_encoder.0.self_attn.multihead_attn.in_proj_bias f4 [192]
0.0058547226 0.0073957103 0.0058165602 0.0028599696 -0.0060578375 0.007035294 -0.011276858 -0.008171092
0.008819809 0.006801687 -0.004965191 -0.0067597367 0.009363477 -0.007453708 0.007964672 4.223785e-05
0.009952338 0.017611612 0.0038065405 0.020665916 -0.011948802 0.006974711 0.017759793 0.0047173565
0.0064390707 -0.010073228 0.0050435187 -0.012713927 -0.016467296 -0.006400253 -0.020859146 -0.006305592
0.015400441 0.012576661 0.011045078 -0.008327085 -0.013427481 -0.006621181 0.013601443 0.0070689353
-0.003135765 -0.016971046 0.015641574 0.016428327 0.016142737 -0.018336667 0.016175048 -0.0018465902
-0.007399806 0.012935228 -0.009379403 0.0020779832 -0.023448665 0.011698163 -0.0065415767 -0.03501141
-0.0134155685 -0.00010336394 -0.0058942516 0.020991866 -0.010894231 0.011970996 0.0021825098 0.0128299985
-0.00093999365 -0.0011444071 0.0006492126 0.0015805438 0.0011908043 -0.0006824438 0.00032553283 -0.0014693104
-0.0011131311 0.0013516595 0.0005287156 0.0003753727 -0.00084011606 0.00039777567 -0.0004907631 -0.0019718325
-3.7679467e-05 -0.0003075058 -0.00034801709 -3.7410526e-05 7.971127e-05 -0.0002911281 -5.7730183e-05 -1.5969501e-05
5.5578832e-05 -0.00020291198 -0.00025192916 -7.493473e-05 -7.633517e-05 -6.092599e-05 -0.00010410181 -0.00035643246
-0.00026784666 -4.198702e-05 0.00021038293 -0.00035390703 -0.00024419383 -0.0006339697 -8.011975e-05 0.00043059269
0.00015723614 -0.00056195713 0.00022246255 0.00013284128 0.00017841552 0.00018146886 -4.3807627e-06 0.00039303687
0.00011899987 0.00010090905 8.605535e-05 8.164845e-05 -6.900852e-06 0.00028890301 0.0001908372 -0.0003809787
0.00024442145 -0.00021763783 0.00026908977 -0.000106995874 0.00015787133 -1.7881992e-05 -8.691328e-05 0.0001985457
0.017857926 0.0016445545 -0.009992626 0.0128445905 0.012874805 -0.0043643923 -0.002649854 0.010341585
0.010984629 -0.010167548 -0.005455221 -0.017974405 -0.016802525 -0.006345136 -0.0027085815 0.00054166064
-0.009878391 0.009764733 -0.012375368 0.01547418 -0.0135255875 0.011389378 -0.0007446151 -0.017744446
0.013636732 -0.0004862874 0.0072921594 -0.014099784 -0.0040448797 0.008569836 -0.015676046 -0.041804027
0.0145785725 0.0005728475 -0.010053277 0.01287042 -0.0076460387 -0.0045621153 0.021708399 -0.014598239
0.01821413 0.010036591 -0.013806027 -0.008822707 -0.023850689 0.01480185 -0.014631034 -0.019657442
0.005261313 0.010342089 0.0035550683 0.025213951 -0.021259516 -0.006821224 0.0024095378 -0.012502489
-0.013799159 0.007691258 -0.016137714 0.011774398 -0.01315475 -0.012698375 -0.015377521 -0.013497083
00000000: f9d8 bf3b b757 f23b d898 be3b 546e 3b3b
00000010: d380 c6bb 5388 e63b 92c2 38bc 0be0 05bc
00000020: f680 103c b0e0 de3b 0ab3 a2bb c880 ddbb
00000030: 4569 193c 3c3e f4bb 417e 023c 8c28 3138
00000040: 220f 233c 3a46 903c 2777 793b 914b a93c
00000050: e8c4 43bc 1e8c e43b fc7c 913c 0e94 9a3b
00000060: d7fe d23b 2e0a 25bc 1a44 a53b 134e 50bc
00000070: 6ce6 86bc 37b9 d1bb cde0 aabc 249f cebb
00000080: 2252 7c3c 570e 4e3c 6af6 343c 536e 08bc
00000090: f0fe 5bbc 7ef6 d8bb 96d8 5e3c 87a2 e73b
000000a0: 6881 4dbb dd06 8bbc c222 803c b394 863c
000000b0: c63d 843c c736 96bc 8981 843c 4909 f2ba
000000c0: 127a f2bb 47ee 533c 11ac 19bc c62e 083b
000000d0: 6a17 c0bc a7a9 3f3c b95a d6bb 2068 0fbd
000000e0: f9cc 5bbc 18c5 d8b8 9124 c1bb 22f7 ab3c
000000f0: b77d 32bc ff21 443c 7008 0f3b ea34 523c
00000100: e869 76ba eeff 95ba ec2f 2a3a 402a cf3a
00000110: c314 9c3a 07e6 32ba 47ac aa39 e095 c0ba
00000120: 7be6 91ba 2b2a b13a 8199 0a3a accd c439
00000130: 3c3b 5cba 8c8c d039 8ea6 00ba dc39 01bb
00000140: 050a 1eb8 bb38 a1b9 1076 b6b9 3fe9 1cb8
00000150: aa2a a738 8da2 98b9 5023 72b8 3ef6 85b7
00000160: 511d 6938 c5c4 54b9 5c15 84b9 4726 9db8
00000170: 2216 a0b8 c98a 7fb8 3c51 dab8 8edf bab9
00000180: c56d 8cb9 381b 30b8 3d9a 5c39 998c b9b9
00000190: 2407 80b9 fd30 26ba f705 a8b8 2cc1 e139
000001a0: c1df 2439 4e50 13ba d644 6939 4f4b 0b39
000001b0: 0d15 3b39 ad48 3e39 77fe 92b6 8410 ce39
000001c0: 928f f938 229f d338 9d78 b438 ae3a ab38
000001d0: de8d e7b6 e877 9739 791b 4839 18be c7b9
000001e0: b125 8039 b635 64b9 9e14 8d39 f962 e0b8
000001f0: 438a 2539 4901 96b7 3645 b6b8 b530 5039
00000200: c94a 923c 188e d73a 1cb8 23bc 1e72 523c
00000210: d9f0 523c 2d03 8fbb 2ca9 2dbb c06f 293c
00000220: e0f8 333c ca95 26bc b6c1 b2bb 0f3f 93bc
00000230: 73a5 89bc dcea cfbb 7582 31bb 3bfe 0d3a
00000240: fad8 21bc 42fc 1f3c 0ec2 4abc 6a87 7d3c
00000250: 6d9a 5dbc 849a 3a3c 4632 43ba cd5c 91bc
00000260: 996c 5f3c 64f4 feb9 11f3 ee3b c802 67bc
00000270: e98a 84bb 7f68 0c3c 0d6b 80bc b33a 2bbd
00000280: f7da 6e3c 252b 163a 80b6 24bc 74de 523c
00000290: 9f8b fabb cc7d 95bb d0d5 b13c 742d 6fbc
000002a0: cd35 953c 8470 243c ad32 62bc 1e8d 10bc
000002b0: 8562 c3bc 7583 723c 01b7 6fbc a508 a1bc
000002c0: 1867 ac3b de71 293c 26fc 683b 7d8d ce3c
000002d0: 7028 aebc 9384 dfbb 56e9 1d3b 3dd7 4cbc
000002e0: de15 62bc f306 fc3b 3d33 84bc 68e9 403c
000002f0: 0587 57bc d80c 50bc fff1 7bbc df22 5dbc

transformer_encoder.0.self_attn.multihead_attn.out_proj.weight f4 [64, 64]
0.065998845 -0.11050322 0.04098004 -0.03436369 -0.03860053 0.11685877 0.035113834 0.07385547
0.108600415 -0.14511311 0.081821 -0.08465266 -0.05972673 0.060031865 0.002822275 0.038558166
0.06465008 -0.085234754 0.09235636 0.05683861 -0.020109529 0.10872764 -0.076769255 0.028225327
0.066498764 -0.046596926 -0.048806936 -0.0041106064 0.030034725 0.051858637 -0.05456767 -0.075585425
-0.10172366 -0.04335018 0.10753107 -0.07923336 0.021833153 0.023800088 -0.08817474 0.056788243
-0.05076038 0.028405538 -0.042977482 0.057626568 -0.0064254515 0.029830055 0.103951104 -0.06838237
-0.10768577 0.08140191 0.082290605 0.091750994 -0.08428261 -0.010798584 -0.10954866 -0.04574858
0.025459317 -0.044295963 -0.056882553 0.024276834 -0.039238594 0.027558515 0.058392845 -0.02406055
-0.014463862 0.095470496 -0.10411405 -0.0025614998 -0.07200698 -0.0068056895 -0.058660947 0.10665992
0.08283154 0.004891702 0.07643479 -0.071420774 0.06882343 -0.055287767 -0.038348176 0.06648794
-0.054698598 -0.13798726 0.0021484366 0.12669167 -0.008337409 0.07224769 -0.06466206 -0.0050141457
-0.01892929 0.080169454 0.11758803 -0.029128263 -0.060820036 -0.0637776 -0.13973005 -0.060313504
-0.115177594 0.00071345933 -0.045530714 0.12773576 0.056386393 0.035267 0.123948686 -0.006007489
0.035421573 0.08288026 -0.103488825 -0.004752087 -0.07914231 -0.113009445 -0.105140075 0.068251334
0.03100454 0.1075302 -0.106388636 0.02398407 0.009401462 0.09802592 -0.019820984 -0.06034382
0.027078796 -0.02431629 0.022324113 0.062496535 -0.06419518 -0.038518317 0.06290391 0.10695592
-0.031137725 -0.08101711 0.0063649584 -0.055991013 0.021291828 -0.07142801 0.07580129 -0.052224137
0.04158656 0.0068993196 -0.01573072 0.064384095 -0.001814629 0.011872686 -0.020540863 0.09119169
0.03258224 -0.070447296 -0.018357638 0.1358289 0.0153386155 0.020153837 -0.06512236 -0.0537628
0.105378605 -0.14204553 -0.033402465 0.07969034 -0.06424213 0.033190038 -0.08171462 -0.069276996
0.08116872 0.021773487 -0.12302352 0.01029255 0.082626745 -0.038500037 0.08085325 0.022993848
0.12261034 0.05256781 0.08575526 -0.02527914 -0.005614626 0.13655412 0.026222393 -0.08585371
-0.08989799 -0.039892234 0.06283316 0.079478584 -0.07261827 0.037356123 -0.082881674 0.0502048
-0.105557434 0.108144045 -0.121656366 -0.06869774 -0.093450576 -0.05420872 0.01342698 -0.060835496
0.10159328 -0.13047262 0.07607395 -0.09499501 0.04857066 0.08716337 -0.07303964 -0.0897135
-0.02617561 -0.08621475 -0.11131212 0.033921883 -0.094077736 0.02145209 -0.062150974 -0.05725197
0.028904747 0.019016623 0.093983755 -0.09615743 0.056251105 -0.0680843 0.07525996 0.107316986
-0.029474221 -0.086704016 -0.090119414 0.048927713 -0.076149076 -0.09287833 -0.02675428 -0.076884724
0.08811697 -0.07127215 -0.009962638 0.06831522 -0.0056359507 0.012572548 0.075797066 0.009800467
0.09288324 -0.0014295102 0.05560344 0.058875445 0.023234833 -0.0141058 0.0060246494 0.08184831
0.10980487 -0.015882915 0.07943561 -0.099342905 0.090605095 -0.08999383 -0.116511606 0.04720507
0.07306049 0.06844465 0.060604114 0.03451423 -0.096029244 0.08057485 0.082370594 0.08648799
00000000: 672a 873d 834f e2bd b0da 273d f1c0 0cbd
00000010: 971b 1ebd a753 ef3d 86d3 0f3d 8941 973d
00000020: e569 de3d 8898 14be c591 a73d 605e adbd
00000030: 04a4 74bd f9e3 753d ebf5 383b 2bef 1d3d
00000040: 4367 843d 8f8f aebd 5525 bd3d 9acf 683d
00000050: bdbc a4bc 99ac de3d 3339 9dbd cd38 e73c
00000060: 8130 883d 6bdc 3ebd c8e9 47bd 44b2 86bb
00000070: 620b f63c b969 543d 5982 5fbd 88cc 9abd
00000080: 7f54 d0bd f58f 31bd 4039 dc3d 1a45 a2bd
00000090: 71db b23c 67f8 c23c f594 b4bd ca9a 683d
000000a0: 1eea 4fbd bbb2 e83c 2809 30bd d609 6c3d
000000b0: 988c d2bb 295e f43c 51e4 d43d 0e0c 8cbd
000000c0: 5b8a dcbd 0bb6 a63d fa87 a83d f2e7 bb3d
000000d0: 5c9c acbd 8bec 30bc 0c5b e0bd dd62 3bbd
000000e0: 0f90 d03c af6f 35bd aefd 68bd 36e0 c63c
000000f0: a6b8 20bd 65c2 e13c 562d 6f3d a11a c5bc
00000100: d6f9 6cbc 0986 c33d bf39 d5bd d6de 27bb
00000110: 6578 93bd 4302 dfbb 7646 70bd 8470 da3d
00000120: 95a3 a93d 924a a03b d889 9c3d 0e45 92bd
00000130: 4cf3 8c3d 6d75 62bd fa12 1dbd d42a 883d
00000140: a30b 60bd 884c 0dbe c9cc 0c3b 76bb 013e
00000150: a199 08bc 99f6 933d 8b6d 84bd b44d a4bb
00000160: 9911 9bbc e22f a43d fed1 f03d 659e eebc
00000170: 6e1e 79bd d59d 82bd 6515 0fbe 4b0b 77bd
00000180: 3be2 ebbd 7207 3b3a 6a7e 3abd 2acd 023e
00000190: 6bf5 663d 2174 103d cfd8 fd3d 78da c4bb
000001a0: 3616 113d 20bd a93d f3f1 d3bd 65b7 9bbb
000001b0: 5d15 a2bd 7f71 e7bd ae53 d7bd 5bc7 8b3d
000001c0: 3cfd fd3c cb38 dc3d 49e2 d9bd 3e7a c43c
000001d0: 9708 1a3c d0c1 c83d 9e5f a2bc 152b 77bd
000001e0: 5ad4 dd3c f532 c7bc 0fe1 b63c 5efc 7f3d
000001f0: c378 83bd 62c5 1dbd c4d3 803d b50b db3d
00000200: 8b14 ffbc 4cec a5bd 2491 d03b d556 65bd
00000210: 336c ae3c d948 92bd b53d 9b3d fae8 55bd
00000220: ab56 2a3d b013 e23b b6dd 80bc cfdb 833d
00000230: d8d8 edba a885 423c 5045 a8bc b5c2 ba3d
00000240: f474 053d ac46 90bd c262 96bc bb16 0b3e
00000250: d14e 7b3c a919 a53c df5e 85bd 6236 5cbd
00000260: bdd0 d73d 6274 11be 06d1 08bd b034 a33d
00000270: 6191 83bd 47f2 073d ff59 a7bd 19e1 8dbd
00000280: c93b a63d 505e b23c c1f3 fbbd 15a2 283c
00000290: 3638 a93d 37b2 1dbd 6496 a53d 985d bc3c
000002a0: 211b fb3d 5851 573d 74a0 af3d 3316 cfbc
000002b0: e6fa b7bb d8d4 0b3e 58d0 d63c 12d4 afbd
000002c0: 701c b8bd 0a66 23bd acae 803d abc5 a23d
000002d0: e3b8 94bd bc02 193d debd a9bd 8ca3 4d3d
000002e0: 7f2e d8bd a07a dd3d f926 f9bd 67b1 8cbd
000002f0: 0463 bfbd f609 5ebd d6fc 5b3c a42e 79bd
00000300: 2310 d03d 9d9a 05be a9cc 9b3d be8c c2bd
00000310: 07f2 463d b582 b23d cf95 95bd b6bb b7bd
00000320: 3c6e d6bc 5c91 b0bd 9cf7 e3bd acf1 0a3d
00000330: d4ab c0bd 4bbc af3c 0592 7ebd 0b81 6abd
00000340: a6c9 ec3c c0c8 9b3c 8e7a c03d 30ee c4bd
00000350: 8f67 663d c86f 8bbd e521 9a3d 02c9 db3d
00000360: ec73 f1bc e091 b1bd 8790 b8bd 6d68 483d
00000370: 0cf4 9bbd fe36 bebd cb2b dbbc bd75 9dbd
00000380: ac76 b43d 22f7 91bd 553a 23bc dae8 8b3d
00000390: c8ad b8bb 17fd 4d3c 7e3b 9b3d 2392 203c
000003a0: 9139 be3d 675e bbba 6fc0 633d 6127 713d
000003b0: fa56 be3c 031c 67bc 6c6a c53b 16a0 a73d
000003c0: 60e1 e03d e31c 82bc 23af a23d 4b74 cbbd
000003d0: 2a8f b93d af4e b8bd a39d eebd 1a5a 413d
000003e0: bda0 953d b52c 8c3d 053c 783d cb5e 0d3d
000003f0: fbaa c4bd 6d04 a53d eab1 a83d 9e20 b13d

transformer_encoder.0.self_attn.multihead_attn.out_proj.bias f4 [64]
-0.0067603285 0.0046600127 0.0072903144 -0.013024121 -0.0028311133 0.0017769131 -0.02018963 0.016211042
0.012724959 0.014234221 -0.0042664357 0.018832758 0.012325533 0.014314886 -0.015683826 0.016168648
-0.0114833005 0.0006505616 -0.014680771 0.020772593 0.01147459 0.019094987 -0.009897332 0.021010553
0.0060060928 0.017413225 0.019523578 0.015733313 0.017116021 -0.008586908 0.0039565456 -0.0025256102
0.016178956 -0.0001960492 -0.018432653 -0.012869369 -0.0051120752 0.0050304546 -0.0078138895 -0.00069905474
0.007063524 0.004950159 -0.017084591 0.001050841 0.014430905 0.018129732 -0.004034274 -0.004711369
0.0051921094 0.0012610047 0.02147867 -0.005263681 0.01141111 -0.012383818 -0.0030252086 0.0029807168
0.013438812 -0.008729344 -0.005930187 0.00893259 -0.023147345 -0.014393292 0.019661821 -0.014841871
00000000: bf85 ddbb 05b3 983b 97e3 ee3b 1f63 55bc
00000010: 338a 39bb 4fe7 e83a b964 a5bc 05cd 843c
00000020: 597c 503c a636 693c 75cd 8bbb 2847 9a3c
00000030: 08f1 493c fc88 6a3c 5e7b 80bc 1d74 843c
00000040: 7424 3cbc 738a 2a3a 9e87 70bc 492b aa3c
00000050: ebff 3b3c 176d 9c3c 6b28 22bc 531e ac3c
00000060: c2ce c43b 2ea6 8e3c e9ef 9f3c 26e3 803c
00000070: e636 8c3c 1ab0 0cbc e9a5 813b b584 25bb
00000080: bb89 843c 8e92 4db9 1300 97bc 0cda 52bc
00000090: 3283 a7bb 83d6 a43b d405 00bc c540 37ba
000000a0: 2275 e73b f234 a23b fcf4 8bbc 5fbc 893a
000000b0: 9a6f 6c3c ce84 943c f131 84bb d461 9abb
000000c0: 9222 aa3b 4c48 a53a 09f4 af3c f57a acbb
000000d0: aaf5 3a3c 7fe5 4abc 9442 46bb 2158 433b
000000e0: 772e 5c3c 8605 0fbc 0452 c2bb ff59 123c
000000f0: 809f bdbc d8d1 6bbc d411 a13c 522b 73bc

transformer_encoder.0.linear1.weight f4 [314, 64]
-0.13876574 -0.08315368 -0.0054391115 -0.08201522 0.034700576 0.049374867 -0.08954489 -0.014603524
0.09261626 0.0784681 0.024487458 -0.009371387 -0.09327444 0.075607486 0.036459178 0.098871246
-0.027876064 0.08835504 0.101439744 0.045300193 -0.055371687 -0.026286826 -0.015966019 -0.07504328
-0.087459944 0.047910847 -0.0946145 0.048332475 0.03594404 0.006031075 -0.093823954 0.00015048413
0.11090465 -0.039997682 0.10553013 -0.039929196 0.019021869 -0.026399747 0.0613281 -0.04046726
0.042495962 0.05214229 -0.057119235 0.070847765 0.007931654 -0.09629824 -0.060313925 0.055089124
-0.039375246 0.049091898 0.1266177 0.09839658 0.029315256 -0.045225218 -0.11717509 -0.005795437
-0.11090464 -0.062162567 -0.0024289782 -0.10883757 0.09413927 -0.12827972 0.026420204 -0.08334361
-0.089330494 -0.12959826 -0.034615114 0.054228935 -0.023340182 -0.086474985 -0.013800053 0.074006245
0.12995934 -0.08430613 -0.069509834 -0.00045900763 0.12619615 0.09381975 0.004605691 0.08104578
-0.005613001 0.05614614 -0.09914473 -0.081006765 -0.07750487 0.13782105 -0.0139545 -0.074022576
0.019886872 0.0698205 -0.09310169 0.04025069 0.09190975 -0.016608525 0.009569803 -0.04415499
-0.042320617 0.020066094 -0.10025261 0.099005066 -0.085767664 0.09121306 -0.050345417 0.047075413
0.07005906 0.035918463 -0.018844819 0.06321355 0.11801924 0.05098826 -0.0002607679 -0.079631165
-0.12115846 -0.04613256 0.0081386315 0.09387303 0.10229503 0.1137857 0.09696184 0.10133102
-0.0860263 -0.065132365 0.07383757 -0.10735386 0.00047647138 0.051665176 0.022113692 0.017162373
-0.008147331 0.040756788 -0.024728192 -0.037579563 0.042206623 -0.034725886 0.075327925 0.031840205
-0.08832431 -0.028384008 -0.050526664 0.12023852 -0.070901 0.038703095 0.12641972 -0.0049973363
0.04682754 -0.1222039 0.108079806 0.047184475 0.059277475 0.046157632 -0.07603761 0.042220525
0.04105508 0.08727854 0.019784473 -0.020828495 0.08515403 -0.04779618 -0.05588229 -0.06221895
0.06748898 0.057774268 0.04601969 0.05725666 -0.013483722 -0.05147858 -0.064340085 0.1042269
0.087949745 0.033759043 -0.04272107 -0.021669494 0.08718959 -0.06091192 0.09341703 0.12076898
-0.082343034 -0.094782025 0.0042979796 0.005885059 -0.06850107 0.008861257 -0.03210083 0.03952046
-0.077801876 -0.009229201 -0.06935986 0.069269486 0.09720214 -0.04963993 0.06708072 0.070829086
0.12748694 0.07645413 0.0009549516 -0.04462539 -0.11280262 0.05355768 0.07703879 -0.12731205
0.075151496 0.022438042 0.10537913 0.092091106 0.109060295 -0.07126321 -0.030734127 0.12700975
0.064153306 0.009167461 -0.016297288 0.018227637 -0.021943236 0.015123414 -0.12358796 0.009194265
0.009900929 -0.0003513963 -0.10039713 0.06827736 -0.1133819 -0.06895799 -0.06776373 -0.009784939
0.1040575 -0.059646204 0.077560954 0.0984535 0.06123206 0.01610089 0.0655423 0.04676473
-0.080976866 0.100451834 0.13526817 0.08434825 0.016386604 0.024912871 0.049347024 -0.05211846
-0.0054444117 0.081355475 -0.04025568 0.030873332 -0.123535 0.02985778 -0.11037799 0.10435753
0.13182922 -0.003112863 0.022873996 -0.047364026 0.07924425 -0.09374139 0.06932687 0.067078665
00000000: 9b18 0ebe 7a4c aabd 933a b2bb 98f7 a7bd
00000010: 3122 0e3d 4d3d 4a3d 5063 b7bd 9e43 6fbc
00000020: 98ad bd3d e2b3 a03d ec99 c83c 728a 19bc
00000030: ab06 bfbd 19d8 9a3d 3856 153d 027d ca3d
00000040: 585c e4bc 7df3 b43d a4bf cf3d b28c 393d
00000050: 6ccd 62bd 7857 d7bc 2bcb 82bc 4bb0 99bd
00000060: 331e b3bd 2a3e 443d 3fc5 c1bd 46f8 453d
00000070: 0f3a 133d 53a0 c53b c626 c0bd 47cb 1d39
00000080: fa21 e33d 9cd4 23bd 2e20 d83d cc8c 23bd
00000090: c0d3 9b3c 4844 d8bc 2c33 7b3d ffc0 25bd
000000a0: 3f10 2e3d 2793 553d dcf5 69bd a218 913d
000000b0: c5f3 013c 0338 c5bd bc0b 77bd 22a5 613d
000000c0: f047 21bd 9614 493d 12a8 013e 2584 c93d
000000d0: 8c26 f03c 143e 39bd 7ef9 efbd a6e7 bdbb
000000e0: f921 e3bd 2d9e 7ebd 7e2f 1fbb 3be6 debd
000000f0: 17cc c03d c25b 03be 2f6f d83c 0eb0 aabd
00000100: e8f2 b6bd 68b5 04be 94c8 0dbd 291f 5e3d
00000110: e933 bfbc cc19 b1bd 9e19 62bc 9690 973d
00000120: 1014 053e b1a8 acbd 2c5b 8ebd f6a6 f0b9
00000130: 9039 013e 9224 c03d 56eb 963b 54fb a53d
00000140: 44ed b7bb 7ff9 653d 640c cbbd e0e6 a5bd
00000150: e0ba 9ebd f620 0d3e 6aa1 64bc 2699 97bd
00000160: cbe9 a23c 0dfe 8e3d 19ac bebd e8dd 243d
00000170: 2e3b bc3d 9a0e 88bc aaca 1c3c dddb 34bd
00000180: 6258 2dbd a661 a43c 3e51 cdbd 2bc3 ca3d
00000190: f5a6 afbd eacd ba3d ff36 4ebd 26d2 403d
000001a0: 207b 8f3d 3d1f 133d 7360 9abc 1b76 813d
000001b0: 12b4 f13d 11d9 503d adb7 88b9 aa15 a3bd
000001c0: ed21 f8bd 7ff5 3cbd e557 053c 8140 c03d
000001d0: 0f80 d13d 7a08 e93d ee93 c63d a386 cf3d
000001e0: 8f2e b0bd 1e64 85bd 2738 973d 57dc dbbd
000001f0: e8ce f939 dd9e 533d c627 b53c 1b98 8c3c
00000200: 627c 05bc 97f0 263d c792 cabc 07ed 19bd
00000210: dae0 2c3d bb3c 0ebd 8745 9a3d e06a 023d
00000220: 60e3 b4bd 9485 e8bc 0cf5 4ebd 9d3f f63d
00000230: 8b34 91bd 2387 1e3d 2c74 013e b2c0 a3bb
00000240: 3cce 3f3d 0a46 fabd f258 dd3d 8244 413d
00000250: f0cc 723d c90f 3d3d 9bb9 9bbd 6eef 2c3d
00000260: 5f29 283d 17bf b23d 0c13 a23c 85a0 aabc
00000270: 3c65 ae3d edc5 43bd d4e4 64bd 4cd9 7ebd
00000280: aa37 8a3d b6a4 6c3d 247f 3c3d f685 6a3d
00000290: d4ea 5cbc 34db 52bd bcc4 83bd ea74 d53d
000002a0: ff1e b43d ec46 0a3d 4afc 2ebd 3984 b1bc
000002b0: 7590 b23d c77e 79bd 6e51 bf3d ba55 f73d
000002c0: 77a3 a8bd 141d c2bd 11d6 8c3b 74d7 c03b
000002d0: 4a4a 8cbd ce2e 113c 297c 03bd 35e0 213d
000002e0: 9756 9fbd 1336 17bc 8b0c 8ebd 29dd 8d3d
000002f0: ea11 c73d 3d53 4bbd 9e61 893d d70e 913d
00000300: f08b 023e fc93 9c3d b855 7a3a 1dc9 36bd
00000310: 0f05 e7bd 4c5f 5b3d 83c6 9d3d 175e 02be
00000320: 07e9 993d fccf b73c 03d1 d73d 439a bc3d
00000330: 015b df3d 72f2 91bd 23c6 fbbc d80e 023e
00000340: cf62 833d 1e33 163c e481 85bc 2052 953c
00000350: 4dc2 b3bc 32c8 773c af1b fdbd 8ba3 163c
00000360: 8237 223c 9d3b b8b9 039d cdbd 00d5 8b3d
00000370: c534 e8bd d939 8dbd b6c7 8abd 0251 20bc
00000380: 191c d53d 944f 74bd 47d8 9e3d fda1 c93d
00000390: 78ce 7a3d 03e6 833c 0b3b 863d 608c 3f3d
000003a0: 33d7 a5bd b1b9 cd3d bd83 0a3e c6be ac3d
000003b0: 333d 863c 1416 cc3c 1b20 4a3d 2b7a 55bd
000003c0: 0967 b2bb b39d a63d 24e3 24bd 12ea fc3c
000003d0: ebff fcbd 4e98 f43c db0d e2bd 67b9 d53d
000003e0: 3dfe 063e 2d01 4cbb 3f62 bb3c c800 42bd
000003f0: cf4a a23d 7cfb bfbd 3ffb 8d3d 8a60 893d
