train_result/A300_i100_o10_sub100/model_2024-09-10_14-51-46.pth (torch, 714299 bytes, 32 tensors)

project_inp.weight f4 [64, 314]
000000 00 86 36 bd 96 72 0a bd 15 9d 7d bd 0a 6d 12 be
       -0.044561386 -0.033800684 -0.061917383 -0.14299408
000010 d6 ae 0c 3e 71 08 29 bd 54 cc e2 bd 07 1f a3 ba
       0.1373857 -0.041267816 -0.11074129 -0.001244516
000020 db 96 b1 bd cb 51 2e bd 79 7e 18 bd 65 0c d6 3d
       -0.086713515 -0.042558473 -0.03722999 0.10451583
000030 e1 5f bf bd 08 63 95 bc b5 cb 45 3c a3 3b c9 bd
       -0.09344459 -0.018235698 0.012072493 -0.09825828
000040 da 32 3e 3d e2 3c da bc e8 1b 26 bd db 6b 7b 3d
       0.046435215 -0.02664036 -0.040553957 0.061382156
000050 72 a6 cb bd 4c ee af 3d 80 f2 46 3d 5a b5 a8 bb
       -0.09943856 0.085903734 0.04857111 -0.005148572
000060 42 89 93 3d 81 52 17 3d c8 64 35 3d 84 1a d0 ba
       0.07203914 0.036943916 0.044285566 -0.0015877043
000070 fb 13 4a 3d 1d 68 f9 bc a1 02 4b 3c 47 79 e2 3c
       0.04933546 -0.030445153 0.0123907635 0.02764572
000080 a9 e8 ca bd 7e f1 16 3d 45 71 58 3b 93 70 a7 3c
       -0.09907658 0.0368514 0.0033026498 0.020439422
000090 af d2 07 bd 9b 42 81 3d c7 a5 18 be 97 bd e8 3d
       -0.033159908 0.06311532 -0.14906989 0.113642864
0000a0 60 8c cc bd bf 29 fa bd 15 93 96 bd 53 b2 33 3d
       -0.09987712 -0.12214994 -0.073522724 0.043871235
0000b0 5c be 0a bb 59 3a a5 bb 12 85 20 bd 57 36 02 3d
       -0.0021170592 -0.005042356 -0.039189406 0.031790104
0000c0 8e c6 6f 3d ad 34 f3 3d 31 62 02 3e 93 43 2b bc
       0.058538966 0.118752815 0.1273277 -0.010453123
0000d0 77 67 79 3d b5 99 15 3e 43 5a 41 3d ad e0 09 bd
       0.060889687 0.14609416 0.04720522 -0.033661533
0000e0 6d 99 e5 3d c9 00 0b 3c d8 1c 3e 3d 60 ce 4b 3d
       0.11210904 0.008484074 0.046414226 0.04975736
0000f0 d6 c6 f6 3d 33 f3 b9 3d 97 3f 9c 3d 79 c8 c7 3d
       0.12049644 0.0907959 0.07629316 0.09755034
000100 31 ac 5d 3d 48 53 10 3e 00 f3 b3 3d 8b 45 bd 3d
       0.054119293 0.1409427 0.08786583 0.0924178
000110 f7 78 8c 3d ba 50 bf 3d 80 f5 eb 3d 04 83 31 3d
       0.0685901 0.09341569 0.11521435 0.043337837
000120 a4 b0 fb 3d 37 7f a4 3d ad 88 88 3d 3a bd 8a 3d
       0.12289551 0.08032077 0.06666694 0.06774373
000130 c1 f2 7e 3d 59 44 77 3d 81 66 36 3d b4 5c b1 bd
       0.062243227 0.060367916 0.04453135 -0.0866026
000140 0c 23 c8 3d 81 65 be bd 2d e1 42 bc 60 b6 a4 3d
       0.0977231 -0.09296704 -0.011894506 0.08042598
000150 46 c5 99 3d 06 7e 2a 3d 9a 19 df 3d 32 fd 91 bd
       0.0750833 0.04162409 0.10893555 -0.07128371
000160 85 59 a1 bd af ef cb bd dc f5 9e bd 6c 8c 09 be
       -0.078784026 -0.099578254 -0.07761738 -0.13432473
000170 03 e6 08 be 48 e7 99 bd 58 2d e6 bc 61 8c 77 bd
       -0.13368993 -0.075148165 -0.028097793 -0.06043661
000180 f8 a2 ed bc 35 3c 61 3d 0f 9e 68 3d 76 63 34 3c
       -0.029008374 0.05498906 0.05679136 0.011010041
000190 c9 6c 25 3d 39 85 76 3d 7a 34 05 3e 4c 3f 03 3d
       0.04038695 0.060185645 0.130083 0.032042786
0001a0 58 06 bc 3d 35 d4 1c 3d df a3 97 3d b2 d3 9a 3d
       0.091808975 0.038288314 0.07404303 0.07559909
0001b0 2e 1f 8c bd e1 bd 6f 3d ae b6 8a 3d a5 4f cb 3d
       -0.068418846 0.058530692 0.06773125 0.099273
0001c0 54 f7 b9 3d b0 b0 ee 3d 50 b2 3c bd 47 1e 28 bd
       0.09080377 0.11654794 -0.04606849 -0.0410445
0001d0 a1 fb 6a bd 58 87 8e bc f1 ca 2f bd 16 72 b7 bd
       -0.05736888 -0.017398521 -0.04291815 -0.08957307
0001e0 6e d7 84 bd e9 a6 fe bc be 12 b7 3d 23 16 b2 3d
       -0.064864025 -0.031085448 0.08939122 0.086956285
0001f0 bc bd 6a bd b4 1c d0 bd d0 5e 7d 3d 95 44 e8 3d
       -0.05730985 -0.10161725 0.061858 0.11341206
000200 cd d2 d1 bd f6 51 94 3d f8 bb b2 3c f8 32 ca 3d
       -0.10245285 0.07242195 0.021818146 0.09873003
000210 6f e3 a3 3d 25 41 03 3e 9d 46 d4 3d a4 66 7d 3c
       0.08002364 0.1281782 0.10365031 0.015466366
000220 2e 9a 30 3d 97 28 1a 3d 7c d8 f8 bd b7 e5 9a 3c
       0.043115787 0.037636366 -0.12150666 0.018908365
000230 73 19 4e bd fb 2e 76 3b 33 30 73 bc a2 43 32 bd
       -0.05031724 0.0037564624 -0.014843035 -0.04352153
000240 2a 45 c9 bd d4 2e 64 bd c2 3e 47 bd 95 e5 f0 bd
       -0.09827645 -0.05570872 -0.048643835 -0.11762539
000250 f7 e8 a0 bd 6b 1a a7 bd a0 54 01 be 62 01 75 bd
       -0.078569345 -0.08159336 -0.12629938 -0.059815772
000260 2e 67 8c 3d 11 0b 04 bd d9 46 ac bd aa b7 29 bb
       0.068556175 -0.032237116 -0.084119506 -0.0025896826
000270 be 6a 39 bc 5a 42 01 3d 32 4a 31 bd 1e de c5 bc
       -0.011316953 0.03155742 -0.04328365 -0.024153765
000280 57 b9 31 bd 1a 83 52 3d bf 72 e1 bd 77 bd 42 3d
       -0.043389644 0.05139456 -0.11008214 0.04754397
000290 6c a2 ad 3c 99 27 c3 bc 93 9d 4c bd 07 5c b9 bc
       0.021195613 -0.023822593 -0.049954962 -0.02262689
0002a0 f4 b8 5c bc e8 51 ca 3d 31 ac 4e bd c5 4d 36 3c
       -0.013471831 0.098789036 -0.050457183 0.01112694
0002b0 90 a5 4d 3d c7 d3 c8 3c f0 db fc 3c 30 2d 97 3d
       0.05020672 0.024515046 0.030866593 0.07381666
0002c0 7a 76 8c bd 85 1f ae 3d ac 24 ed bc 54 d7 45 bc
       -0.06858535 0.085021056 -0.02894815 -0.012075264
0002d0 75 6a 8a bd 8b e6 16 3d 78 17 66 bd 18 51 2a bc
       -0.06758586 0.036840957 -0.056174725 -0.010395311
0002e0 68 51 f5 3c e1 4d 26 3d 60 92 90 3c 61 c9 24 3d
       0.029946044 0.040601615 0.017647922 0.040231112
0002f0 60 21 93 3d de 39 73 bd 34 b3 3e bc a6 2e 4e 3d
       0.071841 -0.05938136 -0.011639405 0.050337456
000300 bd 67 ca 3d 73 60 66 3d e2 72 9b 3d 09 21 98 bb
       0.09883068 0.056244325 0.075902715 -0.00464261
000310 8b 70 02 3e 1d 58 12 3e 47 5a 81 3d 79 a3 8e 3d
       0.12738244 0.14291425 0.06316047 0.06964774
000320 fe 95 6b 3d f1 32 ff 3d 18 71 55 3d 5c c3 94 3d
       0.05751609 0.12460888 0.052109808 0.07263824
000330 bf 09 fb 3d 0d 88 5a 3d 89 65 86 3c 5b 3c dd 3c
       0.12257718 0.053352404 0.016405838 0.027006319
000340 81 06 73 39 01 29 70 bd e3 db 0f 3e 84 41 2e 3d
       0.00023176709 -0.058632854 0.14048724 0.04254295
000350 02 30 78 3d a5 ee da 3d 0d 09 73 bd 07 49 d2 3d
       0.06059266 0.10690049 -0.059334803 0.10267835
000360 f8 1f a5 3d 80 d0 70 3c be c7 df 3c 6a 25 d4 3d
       0.08062738 0.014698148 0.027316924 0.10358699
000370 b7 7b 57 3d d6 04 58 3d d5 0a fd 3d 8e 16 e1 3d
       0.052608218 0.052738987 0.12355582 0.1099063
000380 0d 71 cc 3d 0e 96 b0 3d aa 74 2f 3d 8f 20 b3 3d
       0.099825 0.08622371 0.04283587 0.087464444
000390 78 c9 19 3d 9d 9b 2f bc 29 72 df bd 3d c6 68 3c
       0.03754565 -0.010718253 -0.10910446 0.01420742
0003a0 89 b4 3c 3d 8f ca c1 3c 1c bc 01 3e 1e 68 dd 3d
       0.04607061 0.023656158 0.12669414 0.108108744
0003b0 99 0f b8 3d 12 26 c7 3d 48 64 33 3d b9 0d 96 bd
       0.0898735 0.09724058 0.043796808 -0.07326836
0003c0 75 5e 11 be d7 21 be bd f5 e7 12 be 0f db 06 be
       -0.14196189 -0.09283798 -0.14346297 -0.13169502
0003d0 93 da 63 bd 9a 0c fc bc ed 10 64 bc c0 1b 5e 3d
       -0.05562837 -0.030767728 -0.013920051 0.054225683
0003e0 b0 9c 03 3e 75 15 3d bd 11 dd 92 bd 0b 17 0b 3e
       0.1285274 -0.04616304 -0.07171071 0.13583009
0003f0 c2 56 24 3d 17 c3 04 3e 00 18 3b 3d 0c d9 40 3d
       0.0401218 0.12965046 0.045677185 0.047081992

project_inp.bias f4 [64]
000000 34 10 6f bd 1c ac ac bd 2a 70 d0 bd ba 79 f5 bd
       -0.058365062 -0.08431265 -0.101776436 -0.11986108
000010 81 31 09 be 87 c3 a0 bd 4b b6 21 bd 61 6f f2 bd
       -0.1339779 -0.07849794 -0.03948049 -0.1183765
000020 37 5b ff bd eb 16 7c bd ab f7 01 be 48 39 0f be
       -0.1246857 -0.061545294 -0.12692134 -0.13986695
000030 c6 ea e5 bd d4 8a 8d bd 9f fb e5 bb 6d 75 1c bd
       -0.1122642 -0.06911245 -0.007018521 -0.038197923
000040 62 01 3b bd 3d 49 c8 bd 2f 95 e2 bd 1e 6d b6 bb
       -0.045655616 -0.09779594 -0.11063611 -0.005567207
000050 4e 95 1e be 45 cc a2 bd df b6 a4 bd cb fa b5 bd
       -0.15486643 -0.079491176 -0.080426924 -0.088857256
000060 73 b1 b9 bd 87 0a fa bd 2f 37 56 bc 65 3f 52 bd
       -0.09067049 -0.12209039 -0.01307468 -0.05132999
000070 53 5b e2 bc a3 fa 0e bd 5a 82 6b be db f9 49 be
       -0.027631437 -0.034906995 -0.22998944 -0.19724219
000080 a9 5c 86 bd 90 e9 5a be 40 b6 c4 3a 32 7e a6 bd
       -0.06560642 -0.2137816 0.0015007928 -0.081295386
000090 2f ad 02 be 3a b4 08 bc d2 c8 9c bd 05 dd 28 be
       -0.12761377 -0.008343751 -0.07655491 -0.16490562
0000a0 14 38 d6 bd b8 14 23 bd a0 15 db bd a1 a8 06 be
       -0.10459915 -0.03981468 -0.10697484 -0.13150264
0000b0 49 da a7 bd 5f 8c fb bd c8 47 4b bd 65 8a 2c be
       -0.081959315 -0.12282633 -0.049629003 -0.16849668
0000c0 e6 bc 8d bd 55 73 e9 bd 20 e5 70 bb f5 fa c7 bd
       -0.06920795 -0.11398951 -0.0036757663 -0.09764663
0000d0 71 c8 da bd f2 f7 e3 bd 34 4c 5a be 85 4f ad bd
       -0.106827624 -0.11131276 -0.21318132 -0.08462433
0000e0 d6 fd 6c bd 7a 97 39 be e4 2e 3c bd 0a d6 e8 bd
       -0.057859264 -0.1812419 -0.045943156 -0.1136895
0000f0 eb e9 c5 bd e7 50 f0 bd b3 fb ef bd 39 70 41 bd
       -0.09663757 -0.11734181 -0.1171793 -0.047226164

transformer_encoder.0.self_attn.in_proj_weight f4 [192, 64]
000000 79 86 59 bd dc cf 10 3d de b0 54 be 32 f2 bd 3c
       -0.05310676 0.03535448 -0.20770594 0.023186777
000010 be 71 0b be 73 9e 1f 3d 43 68 69 be 9e 28 34 be
       -0.13617608 0.03896947 -0.22793679 -0.17593619
000020 ff 99 0c 3e 59 56 35 be 75 a6 a1 bd 80 5c c5 bd
       0.1373062 -0.1770872 -0.07893077 -0.096367836
000030 b2 1a 2a be cc 54 1a be ad f4 75 be 57 96 de bd
       -0.16611746 -0.1507141 -0.24019118 -0.10868519
000040 f0 fd 97 3d fc 44 c8 bd cf 00 28 bd 06 4e 3f be
       0.074214816 -0.09778783 -0.041016396 -0.18682107
000050 db 29 e3 bd 58 02 d1 3d 85 ae d9 bd 71 65 fc bd
       -0.11091968 0.10205525 -0.1062899 -0.12324036
000060 60 1a 98 bd ea 4c 84 b9 58 bb 0a be 35 d7 cf bc
       -0.07426906 -0.00025234307 -0.13548028 -0.025371173
000070 1d 39 67 be 2d 3b 23 be 49 67 72 3d 2e bd 5a be
       -0.2258038 -0.15940543 0.05918053 -0.21361229
000080 b0 a9 2e 3d 44 5f 8b bd 73 8e eb bd 94 6c 2b be
       0.042642295 -0.0680528 -0.115017794 -0.16740638
000090 78 bc 03 be c6 d3 41 be 5d e7 37 be b4 1c 90 3d
       -0.12864864 -0.18928441 -0.17959352 0.07036725
0000a0 9c 7d 0b be 10 86 44 bd 25 07 6b be d8 ef 88 bc
       -0.13622135 -0.047979414 -0.22951944 -0.016715929
0000b0 f2 6b db bb 55 c6 5b be 7d 7e fa bc 30 d5 7b ba
       -0.0066962177 -0.21462376 -0.030577892 -0.00096066575
0000c0 d6 1e 4e be 1b 10 0d 3b 54 10 21 be 1b 48 2f 3e
       -0.2012895 0.0021524492 -0.15728885 0.1711735
0000d0 0c bb 33 3b f4 e9 b9 bd 34 3f f8 3c d9 e6 0b bc
       0.002742472 -0.09077826 0.030303575 -0.008538925
0000e0 7f 55 48 be f3 61 4c be b9 0a 47 be 5e 44 2c 3d
       -0.19563864 -0.1995924 -0.19437684 0.042057388
0000f0 61 0a b7 bd 56 22 43 bd 5a 0d 42 be 0c 5a 08 be
       -0.089375265 -0.047640167 -0.18950406 -0.133156
000100 ba c9 4d 3d 92 ab 2a be 9f 83 d6 bd c8 38 62 3e
       0.05024121 -0.16667011 -0.104743235 0.22091973
000110 0f 19 f9 bc 9f bb 3e 3d 56 6d f2 3d 53 45 17 be
       -0.030407457 0.04656565 0.118372604 -0.14772539
000120 51 1e 86 3a fb 08 9f bd dd 76 3b be b7 28 dc 3d
       0.0010232424 -0.07765385 -0.18307061 0.10749953
000130 9c f8 7e 3d a7 ba b3 bd b8 50 ff bc 5f ba ea bd
       0.06224881 -0.087758355 -0.03116642 -0.11461329
000140 eb 7f 2f bc 1a 6a a5 3d cd 5b bc 3d 77 36 a3 bc
       -0.01071165 0.08076878 0.09197197 -0.019923432
000150 95 f3 26 3d 55 f5 80 bd b1 e4 33 3c df f4 6d 3c
       0.04075964 -0.06296793 0.010979817 0.014523714
000160 d6 79 e8 3b c0 d3 11 3d bf 17 2b bd 09 ae 0c 3d
       0.007094602 0.03560233 -0.041770693 0.03434566
000170 c6 ee 45 be 38 05 76 bc b0 7c 13 be 1e 86 8d bd
       -0.19329366 -0.015015893 -0.14403033 -0.069103464
000180 a7 b7 0f be 5a f9 8c bd 3e 15 92 bc 49 ab 1d 3d
       -0.14034902 -0.068834975 -0.017832395 0.03849343
000190 2e 3c 65 bc b4 7d 5d bd 79 69 e3 bb 5d 9b 07 3d
       -0.013991399 -0.054074958 -0.0069400636 0.03310715
0001a0 cc 7a d3 3c 55 85 f3 3d c3 91 e3 bd 29 e2 47 bd
       0.02581539 0.118906654 -0.11111786 -0.048799668
0001b0 83 89 02 be 6b 2c 18 bc b6 1b 1e 3d 37 2a 65 bd
       -0.12747769 -0.009287934 0.038600646 -0.055948462
0001c0 49 fb 58 bd 75 69 f4 3d 28 e3 77 3d be 4f 52 3e
       -0.05297402 0.11934177 0.060519367 0.20538232
0001d0 86 c8 82 bd 6b 3b 2d bd fe 76 16 be 77 44 10 be
       -0.06385903 -0.042292994 -0.1469383 -0.14088617
0001e0 18 6c 59 bc 7c af 01 3e 31 14 3b 3d 10 7e 5e 3d
       -0.0132704 0.12664598 0.045673553 0.05431944
0001f0 f8 a1 9b bd aa 3a 7e 3c 4b 98 07 be e1 bf 7a 3d
       -0.075992525 0.015516916 -0.13241689 0.061218146
000200 14 d3 d8 bd d6 62 37 3d 54 3d 81 bd 99 4b 31 3d
       -0.10587135 0.04477199 -0.063105255 0.043284986
000210 34 e5 3a bd 73 1d b7 bd 9f b9 5e be 2b 31 26 3d
       -0.04562874 -0.08941164 -0.21750496 0.040574234
000220 f7 81 3d 3e 54 da 7b be 96 64 f2 bc 10 22 c4 bd
       0.18506609 -0.24595004 -0.029588979 -0.095768094
000230 b1 a4 be bd c6 91 9d bd 6c db 0f be 23 a8 dc bd
       -0.09308756 -0.0769382 -0.14048547 -0.10774257
000240 f0 68 84 bd 61 1b 02 3e d8 50 30 3d cb 3a 04 be
       -0.06465328 0.12705757 0.04304585 -0.12913053
000250 b5 e2 d3 bc cd f2 6b 3d 82 22 a5 bd c2 26 ea bc
       -0.025864938 0.0576046 -0.080632225 -0.028582934
000260 9c 08 88 bd f6 e4 9c 3b 12 bd 45 3d 1c 55 0a be
       -0.06642267 0.0047880365 0.048276015 -0.13509029
000270 52 a8 8c 3d 9a b3 a8 bd c8 56 c8 bd 0d c4 36 3d
       0.06868042 -0.08237381 -0.09782177 0.044620562
000280 da 6a 0c bd 57 b6 51 3d 74 e9 54 be a6 5b 61 bd
       -0.03428159 0.051199283 -0.2079218 -0.055019043
000290 75 29 4d be 27 ca 2b bd 2a 83 cd 3d e6 78 e2 bd
       -0.20035346 -0.041940834 0.10034783 -0.11058216
0002a0 b7 c7 71 be e4 f7 5e 3d de e6 fa 3c ba 0f be bd
       -0.23611341 0.054435626 0.030627664 -0.09280343
0002b0 a8 5f 04 3c 2c 6c 74 3d 3e 33 4d be 77 ed 24 bd
       0.008079447 0.059673473 -0.20039079 -0.040265527
0002c0 ee 44 67 3d 92 14 75 be 7f 5d da bd ab 37 b2 3d
       0.05646222 -0.23933628 -0.10662364 0.08702024
0002d0 62 5b 5e be b8 5e 12 be b0 31 89 3c 6e 34 97 bd
       -0.21714547 -0.14293945 0.016747326 -0.07383047
0002e0 e1 7e ea bc dd a5 b7 bd 7d 5b df bc ac e2 21 be
       -0.028624954 -0.08967183 -0.027265305 -0.15809125
0002f0 92 4d f9 3c 7d c1 6f be 4f 74 d5 bd 8a e0 67 3e
       0.030432496 -0.23413654 -0.10422575 0.22644249
000300 20 bd 86 3d c6 11 00 3e 2b 1e ec bc 6b a4 2b be
       0.065790415 0.1250678 -0.028822979 -0.16761939
000310 17 e3 91 bd c5 95 56 bd 3f 77 a0 bd 98 c8 7b bd
       -0.07123392 -0.052388925 -0.078352444 -0.061470598
000320 75 bb 5c be 77 b8 1d 3e f2 a3 06 3e c8 9a 0d 3e
       -0.21555884 0.15402399 0.13148478 0.13828576
000330 0e 9d d9 3d c9 aa 1e 3e 48 92 f4 3d bb 12 28 3e
       0.10625659 0.15494837 0.119419634 0.16413395
000340 91 b4 18 3d 51 62 60 bd df 71 8d 3d 37 50 81 bd
       0.037281577 -0.05478126 0.06906485 -0.06314128
000350 35 55 84 3d 7e 57 04 be 9b 55 a6 bd e2 f2 1c 3e
       0.064615645 -0.12924 -0.08121797 0.15327027
000360 28 f4 20 3e a2 ec ed bc b7 ed 1f 3e e8 16 9c bc
       0.15718138 -0.0290435 0.15618025 -0.019053891
000370 2d 8f b7 3d 7e ed 9d bc 77 b3 8f bd d3 94 21 3e
       0.089628555 -0.019278284 -0.07016652 0.15779428
000380 e0 56 9b 3d 32 a0 86 3d 5d d9 15 3e 3c db 03 3d
       0.075849295 0.065735236 0.14633699 0.0321915
000390 f2 fb e7 3d 85 00 35 ba 3b 0f 4a 3e 09 91 bd 3d
       0.11327352 -0.00069046795 0.19732372 0.09256179
0003a0 04 ca 8d 3d 6b 34 65 3e 03 5c 94 3c aa 7d 00 3e
       0.06923297 0.22383277 0.01811028 0.12547937
0003b0 d0 30 9d 3c 26 f0 f7 bc ec ed 78 3d 4d e3 bb 3c
       0.019188315 -0.030265879 0.060773775 0.022935534
0003c0 f3 91 fe 3d 1e d9 89 bd 05 82 1b 3e d3 9b bb bc
       0.12430181 -0.06730865 0.15186317 -0.022901451
0003d0 61 81 00 3e 80 5a 6f bd 90 9d 30 3e 1f da 86 bd
       0.12549354 -0.058435917 0.17247605 -0.06584572
0003e0 45 79 7b bd 08 1e 36 3c 3a 85 30 3d 4d 2b a1 3d
       -0.06139495 0.011115558 0.043095805 0.07869587
0003f0 a7 8d ab 3d 35 7d 0c 3e 6b 49 fa bc da 55 17 3d
       0.083766274 0.13719638 -0.030552587 0.03694711

transformer_encoder.0.self_attn.in_proj_bias f4 [192]
000000 6c 95 7c 3d 6f 51 7d 3d cb 5f 47 3d 67 71 6d bd
       0.061665937 0.06184524 0.04867534 -0.057969477
000010 ea 0d 92 3d e3 92 66 3d 8d fb 66 bd 33 32 0c bd
       0.0713156 0.056292426 -0.05639224 -0.03422756
000020 73 cf 89 3d 1d e3 78 3d 4c a1 42 bd 0c cf 20 bd
       0.06729021 0.060763467 -0.047517106 -0.039259955
000030 d8 85 03 3d e8 9e 2a 3d a3 ba e4 bc 04 86 90 bd
       0.032110065 0.04165545 -0.027921027 -0.070568115
000040 73 ec 8b bd 9b 21 40 bd b1 60 a4 bd 7f 2f 9f 3c
       -0.068322085 -0.04690705 -0.08026255 0.019431828
000050 2b 4a 0f bd e7 2c 3e bd 49 ef 26 bd 18 51 41 3d
       -0.03498284 -0.04642954 -0.040755544 0.047196478
000060 a5 6e 08 3d cd 72 55 bd 14 80 7b bd f8 c7 c9 3c
       0.033308644 -0.052111436 -0.06140144 0.024631485
000070 44 53 b3 3c 24 72 7b 3d c0 0d 4c bd 32 3e fb bb
       0.02189029 0.06138815 -0.0498178 -0.0076673264
000080 54 4f a2 3d b3 3e d9 3c 8f 59 8f bd e2 dd 54 bd
       0.07925287 0.026519155 -0.06999504 -0.051969416
000090 92 10 ce bc 29 b8 96 3d 5c 4d 1b bd e1 59 91 3d
       -0.025154386 0.073593445 -0.037915573 0.07097221
0000a0 91 b8 63 3c a7 2f 78 3d ed 02 3e bd aa 3e 2f 3d
       0.0138989845 0.06059232 -0.04638951 0.04278437
0000b0 cd 73 89 3d 35 da 85 3d 88 c5 74 bd 79 bf 8a 3d
       0.0671154 0.0653576 -0.059758693 0.06774802
0000c0 96 92 04 bd 86 b4 1b 3b 0a a2 53 3c 86 57 8d 3c
       -0.032366358 0.0023758723 0.012917051 0.017253648
0000d0 ba 50 97 bd 66 a8 fb bc 70 47 77 bd 2b c9 2f bd
       -0.07388444 -0.030719947 -0.060370862 -0.042916458
0000e0 22 4d 91 3d cc d6 0f bd 73 2d 0e bd 87 7d 54 3d
       0.0709479 -0.035116956 -0.034711313 0.051877525
0000f0 6b 77 96 bd 26 65 05 3d ea d0 b5 3d a8 d3 fd bc
       -0.07346996 0.032567166 0.08877738 -0.030984715
000100 1e bf 29 3a d3 fe de 38 ce 8a 11 39 25 cc 7a b9
       0.0006475317 0.000106332496 0.00013879986 -0.00023917908
000110 49 32 8a ba 6e 43 6d 3a c3 f3 2a 39 d3 e5 d1 b9
       -0.0010543551 0.00090508803 0.00016303272 -0.0004003482
000120 41 59 e3 3a 43 21 58 ba 3e 79 04 b9 7f c9 ae 39
       0.0017345325 -0.00082447025 -0.00012633667 0.00033337992
000130 5c f2 dd 39 f5 1c 3e ba 48 2f 0b b7 c0 7f ee ba
       0.00042332977 -0.000725224 -8.296054e-06 -0.0018196031
000140 b9 c8 c5 38 32 2e 0c ba 54 28 aa ba 09 38 94 38
       9.4310795e-05 -0.000534746 -0.001298199 7.067627e-05
000150 82 1a 3d b9 4a 1e 42 3a 39 90 49 3a 57 24 8c 38
       -0.0001803432 0.0007405026 0.00076890324 6.682489e-05
000160 36 dc d0 39 f8 3b 0d 3a 8d 7c 88 b8 28 18 97 b9
       0.00039836921 0.0005387659 -6.508185e-05 -0.00028818962
000170 38 1b 82 3a 05 55 86 3a 32 3d 25 bb b2 ca 67 b9
       0.0009926325 0.0010248726 -0.0025213477 -0.00022105387
000180 84 0f 14 3b 43 1d a1 ba b7 3e 8b 39 e7 a8 df b9
       0.0022592256 -0.0012292046 0.00026558872 -0.00042659717
000190 3c ff 37 ba f1 ff a7 36 48 3d a3 b9 8b 3d d7 ba
       -0.0007018929 5.0067833e-06 -0.0003113544 -0.001642154
0001a0 2e 42 9b 3a 27 fb a5 ba dc 47 c2 ba fd ea 90 ba
       0.0011845285 -0.001266335 -0.0014822441 -0.001105636
0001b0 08 69 33 b6 de b8 a7 39 52 de d8 39 8b ac fc 39
       -2.6734215e-06 0.0003199046 0.00041364372 0.0004819374
0001c0 47 11 0e 3a c5 9d da 39 3c 90 3e ba 39 63 bd 3a
       0.00054194446 0.00041697748 -0.00072694174 0.0014449126
0001d0 95 cc 22 3a 10 65 68 3a 48 9b 81 b9 48 ac 8d 3a
       0.00062102947 0.0008865157 -0.0002472049 0.001080879
0001e0 03 73 e7 ba d6 58 fa 3a 42 48 ab 3a ce 71 e0 3a
       -0.0017658178 0.0019099962 0.0013067799 0.001712376
0001f0 30 ec 6f ba 1b ee 38 3b 02 73 e5 3a 4a 35 43 ba
       -0.0009152321 0.0028218094 0.0017505588 -0.00074466004
000200 b0 47 06 bd 53 7e 2c bc 64 67 e9 3b 4f cf 14 3d
       -0.03278321 -0.010528165 0.007122921 0.036330517
000210 cf e8 8d 3d b6 a7 00 be 67 f2 7e bd cf 57 90 bd
       0.0692917 -0.12563977 -0.06224289 -0.07047998
000220 85 5b ea bd 05 b3 62 3a b8 74 7c bb a0 73 fa bd
       -0.11443237 0.0008647892 -0.0038521718 -0.12229085
000230 17 fa f6 bd c5 7c 04 3e 87 39 9a bc 91 af 0a 3c
       -0.120594196 0.12938221 -0.01882626 0.00846471
000240 6a 4b 43 bb 0c 2d 6a bd df 94 cf bc 27 8b 1b bd
       -0.002979959 -0.057171866 -0.025339542 -0.037974503
000250 38 e2 16 3d 15 2d 4f bc ce ac 81 bb ce 18 1b 3e
       0.036836833 -0.012645026 -0.0039573675 0.15146181
000260 92 64 fe 3d 02 8b 79 3b f4 fb 83 bd bc 3a 72 3d
       0.12421526 0.003807724 -0.064445406 0.059138045
000270 b1 01 b6 bd 78 0b 99 3d 4a b3 3a 3c 19 8e a4 3c
       -0.08887041 0.074728906 0.011395285 0.020087289
000280 1f c1 d5 3d fe 62 ab 3d 05 04 a4 3b a6 94 0f bb
       0.104372256 0.08368491 0.005005362 -0.002190867
000290 d0 7d 6c 3d bd b4 cd bd 92 5d 41 bd 36 32 24 3d
       0.05773717 -0.10044239 -0.047208376 0.040086947
0002a0 ca af 57 37 28 31 a1 3c da 8d 37 bd b0 cc 5b 3c
       1.2855928e-05 0.01967676 -0.044813015 0.0134155005
0002b0 c2 ac a8 3d 25 85 8b 3c 60 22 dc bb 8f f7 d4 bd
       0.08236076 0.017031262 -0.006717965 -0.103987806
0002c0 72 33 c2 3d 54 e9 a5 bd 20 91 44 bd 6f 0a 0c 3e
       0.09482469 -0.081011444 -0.047989964 0.13675855
0002d0 78 80 ee 3d f6 82 ae 3d fc 17 36 bd 34 43 8a bd
       0.11645597 0.085210726 -0.044456467 -0.06751099
0002e0 d1 96 82 3d 5b df e6 3c 75 df 8b bd c5 e6 d2 bc
       0.06376422 0.028182676 -0.068297304 -0.025744805
0002f0 62 4c 24 be e2 31 1a 3c 9f ea d6 bc 79 8c a2 3c
       -0.16044763 0.009411307 -0.026234923 0.019842373

transformer_encoder.0.self_attn.multihead_attn.in_proj_weight f4 [192, 64]
000000 d6 75 28 be 6b f3 8c bd a5 6c f1 bd 40 1f 0b 3c
       -0.16451201 -0.06882366 -0.117883004 0.008491337
000010 f2 c8 1e be 92 e5 b3 bd 8f e3 2d 3e 82 b6 05 be
       -0.15506342 -0.087840214 0.16981338 -0.13057902
000020 ec b5 68 be db 4d 8f bd 9f 89 44 3e 16 b5 43 bd
       -0.22725648 -0.069972716 0.19193123 -0.04778012
000030 84 27 c8 3d ce 0e 1e 3e 4f d3 f3 3d ea dc 06 be
       0.09773162 0.15435335 0.11905538 -0.1317021
000040 ab 15 22 3e de 60 03 3e ee c3 d4 3d 37 33 27 be
       0.15828578 0.1282992 0.10388933 -0.1632813
000050 dc 67 95 bd 57 6f ce bd fe 3e 5d bd 02 9d 6c bd
       -0.072952 -0.1007983 -0.054015152 -0.05776692
000060 f1 dd 8b bd c4 52 91 bd b9 51 1d 3c ba e6 b7 bd
       -0.06829441 -0.070958644 0.009602004 -0.089795545
000070 94 05 8a 3d 89 4b 1e be 4e 1c 73 3d bf 69 b6 bc
       0.06739345 -0.15458502 0.059353165 -0.02226722
000080 ea 6a 20 be 00 70 27 bd 7f 2c 0c 3e 8e 08 cf 3d
       -0.15665784 -0.040878296 0.13688849 0.101090536
000090 02 e8 2e 3e 0c 11 1a bc f8 3b 97 bd 1d 63 51 be
       0.17080691 -0.009403478 -0.07384485 -0.20447965
0000a0 f4 41 5d 3d 13 5c b1 3d 7e 38 37 be 83 d7 19 3d
       0.054017976 0.0866014 -0.17892644 0.037559044
0000b0 3f 3f 70 be 72 fe a0 3c 6e d4 00 3e ac 17 85 be
       -0.23461626 0.019652579 0.12581035 -0.25994623
0000c0 36 1a 2e 3e a7 3f fc bd 64 21 a4 3c ba fd e0 39
       0.17002186 -0.12316828 0.020035453 0.0004291365
0000d0 86 11 b2 3d cc a9 5d be ce dc 62 3e b7 ea f3 3d
       0.086947486 -0.21646804 0.22154543 0.11910003
0000e0 a7 87 ce 3c 03 a2 15 bd 21 ec 37 bd c8 bb a5 bd
       0.025211168 -0.03653146 -0.044902924 -0.08092457
0000f0 a5 36 12 3e 90 df 4b 3e 63 16 70 3c b9 6b f1 3d
       0.14278658 0.19909501 0.014653775 0.117881246
000100 6b b2 04 3d 09 c3 6a bd 3f 87 d7 3d c7 a8 96 3c
       0.032396715 -0.057314906 0.10523843 0.018391026
000110 4e fb 0b 3e d1 ca f4 bd e5 de 9b bd 37 f0 24 bd
       0.13670084 -0.11952747 -0.07610873 -0.04026815
000120 90 ab 6a 3e c6 0c 75 3e f6 fb 00 be 3f 0d 17 3e
       0.22917008 0.23930654 -0.12596115 0.14751147
000130 7a dd d4 bd 6d 3c 3e be 06 4d a2 3d bf 24 a3 bc
       -0.10393806 -0.18577738 0.07924847 -0.019914983
000140 35 29 69 3b f6 52 06 be ca 89 83 bd 06 b5 c7 bd
       0.003557754 -0.13117585 -0.064227656 -0.09751324
000150 bd 0e f3 3d fa f0 e8 bd fd fe 12 3e da 0f 4b be
       0.118680455 -0.11374088 0.14355083 -0.19830266
000160 7f e0 87 ba 73 ed 3e be ec ce 4b 3d ba 4c a4 bd
       -0.0010366588 -0.18645267 0.049757883 -0.08022447
000170 3f 94 93 bd 3f 18 b4 3d 9e ea 60 be 24 f7 dc 3d
       -0.0720601 0.08793687 -0.219645 0.10789326
000180 63 82 e2 3d ec 76 90 3d 40 cd 3d be 53 5f 10 be
       0.110600255 0.070539325 -0.18535328 -0.14098863
000190 74 30 16 be cf 4e 54 3d 5f 32 28 3e dc 35 4a 3e
       -0.14666921 0.05183297 0.16425465 0.19747108
0001a0 8d 9b b1 3d 41 b0 c9 3d a6 6e 8a bd a0 ef 80 bd
       0.08672247 0.09848071 -0.06759386 -0.06295705
0001b0 9d 76 7d 3d 92 07 1c be fa d4 b1 bd 08 99 37 3e
       0.061880697 -0.15237263 -0.086832 0.1792947
0001c0 fe a6 03 be e7 a8 9a bd 6b 3e 2d 3d d4 aa 00 be
       -0.12856671 -0.07551747 0.042295855 -0.12565166
0001d0 6d 20 71 bd a4 48 a5 bd 78 8a 5f be 55 3d f8 bd
       -0.058868814 -0.08070496 -0.21830165 -0.12121073
0001e0 db 8c 77 3b 99 e8 8c be 0f 3f 25 bd 70 c3 41 3c
       0.0037773165 -0.27521208 -0.04034334 0.011826381
0001f0 f4 8f 2b be 18 ae 7b 3a 2e c7 4e 3d cb 89 9a bd
       -0.16754133 0.0009600832 0.05048292 -0.07545813
000200 de 5e 11 be 6f 5b f0 bd 28 9b 4a bd ad 19 94 3d
       -0.14196345 -0.117361896 -0.049464375 0.0723146
000210 37 cf 6e be 3c 4e 01 3e d4 b3 8e 3d 73 a4 ac bd
       -0.23321234 0.126275 0.06967893 -0.08429804
000220 c8 0d 5d be 3f 56 74 be cb 00 00 3e d5 97 f1 3d
       -0.21587288 -0.23861025 0.12500302 0.11796538
000230 76 2c 67 bd ad 6f 1d 3e 9f 09 6c bd c1 a0 e5 3c
       -0.056438886 0.15374632 -0.057626363 0.028030755
000240 08 61 3f 3e 85 7c 3c 3e c5 75 3e 3e d4 a0 0c 3e
       0.18689358 0.18406875 0.18599613 0.13733226
000250 4a 75 36 bb 1f 39 a8 3c ea 63 19 be b5 4e 05 bc
       -0.0027840906 0.02053505 -0.1497952 -0.008136441
000260 30 be 9a 3d a9 fc 81 3e c4 d7 55 bd f1 5e c3 bd
       0.07555807 0.25388077 -0.052207723 -0.09539593
000270 9b 5a f5 3d c8 58 8f be e7 ca f8 3d 32 86 a8 bd
       0.11980172 -0.27997422 0.121480756 -0.08228721
000280 a4 8d b2 bc db 36 5b be ae 1e 32 3d 90 a6 b4 3c
       -0.021796055 -0.21407644 0.04348629 0.02205208
000290 77 7f 81 3d 95 08 09 be 03 f8 05 be 46 e9 dc bd
       0.0632314 -0.1338218 -0.1308289 -0.10786681
0002a0 3a 13 00 3d e8 49 ec 3d f6 12 75 bd 57 fc d6 bd
       0.031268336 0.11537534 -0.059832536 -0.10497349
0002b0 df b9 7e be 64 12 0f be 52 6b c2 bc cb 58 89 3c
       -0.24875592 -0.13971859 -0.023732815 0.016765973
0002c0 36 ab 48 3e 6e dd 2a be c8 ec 2a 3e 78 91 38 3e
       0.19596562 -0.16686031 0.16691887 0.18024242
0002d0 1c cf 53 3e 60 4e 30 be 6a 2c 23 bc ea 19 2d 3e
       0.20684475 -0.17217398 -0.00995932 0.16904417
0002e0 42 86 2f be 18 4e 81 bc 0a ea 82 bd 25 e8 20 be
       -0.17141059 -0.015784308 -0.06392296 -0.15713556
0002f0 3b ea e3 3d a8 92 d5 3d d9 75 21 3d dd 6b c2 3d
       0.1112866 0.10428363 0.03941903 0.094932295
000300 53 43 eb 3d 25 aa f6 3b 09 2d 80 bd a3 5a 87 3c
       0.114874505 0.007527607 -0.0625859 0.016522711
000310 1f 0d 37 3d 9a 7f 36 be 02 d9 15 be c8 3d 93 bc
       0.044690248 -0.17822114 -0.14633563 -0.017973796
000320 ff ca 14 be 00 ae 37 be 52 cf a2 3d cf f5 00 3d
       -0.14530562 -0.1793747 0.079496995 0.03148442
000330 f5 f5 8d bd a1 2f a8 3c c0 d1 16 3d 76 97 e4 3d
       -0.06931678 0.020530524 0.036821127 0.111617014
000340 c4 57 87 3c af d8 04 3e 94 6c e0 bd 62 cc 07 3e
       0.016521342 0.12973283 -0.1095821 0.1326156
000350 56 7f 45 3e 3c 63 ee bc 81 3b 1e 3e 22 02 7c 3c
       0.19286856 -0.029100053 0.15452386 0.015381368
000360 99 aa 54 bc 17 6a f6 3c 4d d2 2d bd 06 f0 89 be
       -0.012980127 0.030079884 -0.042436887 -0.26940936
000370 c5 8a 01 be df f6 0b 3d 64 54 23 3e ab d2 71 bd
       -0.12650593 0.03417098 0.15950161 -0.0590388
000380 0d b2 3b be 05 f9 0a be ee 3d 8d 3c 67 b9 f5 3c
       -0.1832964 -0.13571556 0.017241444 0.029995633
000390 8c 7b df bd c3 eb 80 3c 75 e7 90 3d 02 8a fe bc
       -0.109122366 0.01573742 0.07075397 -0.031071667
0003a0 34 35 90 be 80 2c 4c be 72 d7 12 3e f3 c2 47 3c
       -0.2816559 -0.1993885 0.14339998 0.012192476
0003b0 21 75 cb bd e2 1b 6b be 17 c7 2a 3e 4a d0 1c be
       -0.0993445 -0.22959855 0.16677509 -0.15313831
0003c0 24 dd 0a be cd 7d b4 bc db 7e da 3c 22 4e 76 3d
       -0.13560921 -0.022032643 0.026671818 0.060133107
0003d0 9a 5c 42 3d db 77 9e 3d ae 2d 33 3d d5 fc 20 3e
       0.047451593 0.07737704 0.043744735 0.15721448
0003e0 6d e2 7a be 1c 02 01 be 1f e9 29 3e 3d 3b f9 bc
       -0.24500437 -0.12598461 0.16592835 -0.030423755
0003f0 d1 32 05 bd be 28 53 be 72 47 ae bd d7 f2 71 3e
       -0.032519165 -0.2062101 -0.08509721 0.23627792

transformer_encoder.0.self_attn.multihead_attn.in_proj_bias f4 [192]
000000 c5 66 90 bd 76 27 5f 3d 86 f8 7c bd e7 84 ee 3b
       -0.07050852 0.054480992 -0.061760448 0.007279027
000010 d4 b6 74 bd e8 30 43 3d 85 37 77 bd 72 d6 5f 3d
       -0.05974467 0.047654063 -0.060355682 0.05464787
000020 2d 11 a0 bd fd 33 6b bd 69 54 86 bd 1b c2 71 bd
       -0.07815776 -0.057422627 -0.06559069 -0.059023004
000030 1b 88 b8 bc cb fa 90 bd 39 0b 90 3d a3 bd 87 bd
       -0.022525838 -0.07079085 0.070333906 -0.06627967
000040 7d 44 b8 3c 8e 66 0f bb e7 6d 1f bd 1d ba c3 bc
       0.022493595 -0.0021881196 -0.03892317 -0.023892457
000050 d5 c3 0a 3c 60 92 b4 bc 62 92 14 3d a5 08 ad bc
       0.008469542 -0.022042453 0.036272414 -0.021122286
000060 29 d4 4c 3c 63 c8 e7 3b bf c7 7e 3d 79 00 45 bc
       0.012501755 0.0070734485 0.06220221 -0.0120240385
000070 16 fb 01 bd ec 66 dd 3c 3a b7 00 3d 6a 69 7e bd
       -0.031733595 0.027026616 0.03142474 -0.06211225
000080 01 c7 1b 3d 6b e1 e3 bc 23 32 37 3c d7 4c 3b bc
       0.03803158 -0.027817449 0.011181387 -0.011431894
000090 0d 18 36 3d e0 b5 f6 bc c7 b0 70 bd 2d 6e 32 bd
       0.04445653 -0.030116022 -0.058762338 -0.043562103
0000a0 4d 5b 1c 3d da bc bb bc 95 23 54 3c 53 87 12 3d
       0.03817301 -0.0229172 0.012947937 0.035773586
0000b0 bc 94 3d bd 1f 37 cc bc a0 ce 5b 3d 2a 54 23 bc
       -0.046284422 -0.024928628 0.05366385 -0.009968797
0000c0 f2 c0 0b 3d 7a 24 a8 3c 8e ca 53 bd fc 69 2d 3c
       0.034119554 0.020525206 -0.051706843 0.010584351
0000d0 98 43 32 3d 35 6d 88 bd 8f 3a 49 bd 3b d9 e5 3b
       0.043521494 -0.066614546 -0.04912811 0.0070144213
0000e0 6d 9e 94 bd 3b 9b 53 3d 57 c7 86 bc 66 62 a8 3c
       -0.0725678 0.05166171 -0.016452475 0.020554733
0000f0 9b 9d e9 3c 30 fd fa 3c 4b ff 26 3c 90 6d 96 3b
       0.028517535 0.030638307 0.0101927025 0.0045906976
000100 03 68 81 3a 0b b4 81 ba c7 2e 3c 3a d8 c7 d9 39
       0.0009872917 -0.0009895576 0.0007178601 0.0004153836
000110 6a 44 7e 3a 28 b2 ae b8 0f 71 42 3a d4 a7 a0 b7
       0.00096995255 -8.330151e-05 0.000741736 -1.9151637e-05
000120 9f 2e 3f 39 79 e2 4e 3a 5f 69 a4 3a 5e 17 98 3a
       0.00018232547 0.00078920234 0.001254361 0.0011603644
000130 50 2a 91 ba b4 40 2b 3a 83 a2 05 39 fe f0 e3 39
       -0.0011075232 0.0006532774 0.00012744409 0.00043476367
000140 8d ab 96 3a 1f d0 bb b9 7c 19 57 b9 c7 f7 05 ba
       0.0011495218 -0.00035822482 -0.00020513491 -0.0005110469
000150 4a 95 96 ba d3 42 2a ba 37 ab 02 b9 2d 7b 26 b9
       -0.0011488583 -0.0006494943 -0.00012461549 -0.0001587688
000160 07 7d fe 37 51 c7 09 ba b3 b1 08 b9 44 aa 60 b9
       3.033738e-05 -0.0005255836 -0.00013036169 -0.00021425734
000170 9f 6b a7 b9 0b db 6a ba 35 9b 21 3a 2a 7c 40 ba
       -0.00031932906 -0.00089590315 0.000616479 -0.00073427206
000180 30 a5 1b 3b 15 d9 35 ba 08 39 73 3a 9e 39 2a bb
       0.0023749582 -0.000693695 0.00092782127 -0.0025974284
000190 ca 3b d7 3a 88 fd 2a ba fc 88 54 39 65 71 06 ba
       0.0016421017 -0.00065227645 0.00020268926 -0.00051285914
0001a0 d8 88 2a 3a ab 6b b1 ba ed 77 39 3b d4 53 4a 3a
       0.00065053767 -0.0013536116 0.002830024 0.000771818
0001b0 1f 91 da ba bc 04 c5 39 4f 22 27 b9 c3 12 f4 3a
       -0.001667533 0.00037578295 -0.00015939142 0.0018621314
0001c0 f9 27 9a 39 f9 2c 53 b9 53 85 1f 39 bf c2 9e 38
       0.0002940295 -0.00020139282 0.00015213089 7.5703014e-05
0001d0 42 88 de b9 d8 f3 38 38 0e 7e ea b9 a1 a7 84 b8
       -0.0004244466 4.4096116e-05 -0.00044725876 -6.325474e-05
0001e0 f6 27 7f b8 be fa 0f b9 32 2a 98 39 4c c3 de 39
       -6.0833954e-05 -0.00013730951 0.00029023137 0.00042488647
0001f0 96 92 55 ba 51 c4 0b b8 39 14 d1 b9 80 e6 f1 b5
       -0.0008147148 -3.3323016e-05 -0.00039878653 -1.8022984e-06
000200 dc 0f 84 3d 14 8a d4 3d d0 52 38 3b 2e 38 7b bd
       0.064483374 0.10377899 0.0028125532 -0.061332874
000210 45 7d 88 3c 9b 86 1a 3e 13 7d 06 bd 03 dd 02 3d
       0.016661296 0.1509041 -0.032834124 0.031949054
000220 73 b9 8c bc 5f 08 69 3d bc 44 bc bd b1 1e 87 3d
       -0.017178273 0.05689275 -0.091927975 0.06597651
000230 1f 1d 47 bb e2 d0 d0 bd 5d f3 b2 bb 3e 09 1a 3e
       -0.0030382348 -0.10196091 -0.00546114 0.15042588
000240 b6 71 68 bd d2 7d b9 3d 81 f4 c7 3d 92 f2 bf bc
       -0.05674907 0.090572014 0.09763432 -0.023431096
000250 90 10 01 3c 52 fa b0 3d 65 d3 5e bd 7c 38 be 3d
       0.007877484 0.08641495 -0.05440082 0.09288117
000260 c2 77 5d 3d 8a 92 9a bc 15 cb 97 3c 51 3b d2 bd
       0.054069288 -0.018868703 0.018529454 -0.1026522
000270 08 df 90 3d b4 70 94 3d 69 ce ff 3d 79 57 a9 3b
       0.0707379 0.07248059 0.124905415 0.0051678983
000280 57 aa e7 bc 2b d3 20 bc 47 39 84 bc 81 cc 06 3e
       -0.028279467 -0.009815971 -0.016140593 0.1316395
000290 f8 be 23 3d 7e e9 00 3d e4 40 46 3b c4 0e 48 bd
       0.039977044 0.031472676 0.003025108 -0.048842207
0002a0 7c e4 92 bd 34 aa 71 3d 08 46 a0 3c 6f 50 b3 bd
       -0.07172486 0.05900021 0.019564644 -0.08755576
0002b0 bd ae 3f bc 4f 97 69 3d d3 3b b0 3d 12 94 5f bd
       -0.011699376 0.057029065 0.086051606 -0.05458457
0002c0 8d 6c a5 3d 29 3d 9e bd 5f 12 93 bd 69 03 5a bb
       0.08077345 -0.07726509 -0.071812384 -0.0033266193
0002d0 20 34 05 3e b5 d8 1d bd c6 76 92 3d e0 55 bf 3d
       0.13008165 -0.038536746 0.071515605 0.09342551
0002e0 ac 30 b9 3d 83 1a e3 bc 05 4c a2 3c 68 35 9d 3d
       0.090424865 -0.027722603 0.01981164 0.07676202
0002f0 bc 11 f9 bc ca 24 44 bd 5a cf 97 bd dc c0 cb bd
       -0.030403964 -0.047886647 -0.07412596 -0.099488944

transformer_encoder.0.self_attn.multihead_attn.out_proj.weight f4 [64, 64]
000000 a9 f1 3f 3d e5 9c 75 3d c7 c3 7b 3e 86 47 21 be
       0.046861324 0.05996408 0.24586402 -0.1574994
000010 8e 67 3f 3e 03 5e b2 3e 71 8b 3c be 4b 3e d5 3e
       0.18691847 0.3483735 -0.18412568 0.41649088
000020 fb 56 54 be 46 62 46 3e f4 6d 6a 3d 13 77 08 3d
       -0.20736305 0.19373426 0.057233766 0.033316683
000030 ed 53 6c bc d6 d2 1d be 00 be 71 3e 24 2b c5 3d
       -0.014424306 -0.15412459 0.23607635 0.09627369
000040 1c eb 53 bc 10 40 b0 3a a1 c4 e0 bd eb 7c 20 3e
       -0.012934472 0.0013446826 -0.10975004 0.15672652
000050 79 d3 b6 bd d3 17 35 3d c6 f0 18 3e 80 e6 96 bd
       -0.08927054 0.044212174 0.14935598 -0.07368183
000060 77 99 86 bd b8 d2 6b 3e c7 6b 1a 3e da ac 27 be
       -0.0657224 0.23029602 0.15080176 -0.16374531
000070 ab 05 d4 3d 76 b6 15 3d 6f e7 a0 3e 75 d6 ad be
       0.103526436 0.03655096 0.3142657 -0.3395268
000080 2c 58 cb be 80 fe 95 3e fd cf a2 3e aa 3f 50 3e
       -0.39715707 0.2929573 0.31799307 0.20336786
000090 95 ca f0 bc 5f 9a 63 3e 3e 20 35 be ba 78 31 be
       -0.029393474 0.22226857 -0.1768808 -0.1733121
0000a0 ee 69 3c be b6 82 a8 3e 73 88 62 be 7a d0 a6 be
       -0.18399784 0.32912225 -0.22122364 -0.3258093
0000b0 8f aa 1c 3e 0e 87 95 be cd bd d2 3d fa b6 07 be
       0.15299438 -0.292046 0.10290108 -0.13253394
0000c0 fc 43 a8 be c2 4a be bd 39 a4 03 bd f4 cc 4c 3e
       -0.32864368 -0.09291603 -0.032139037 0.20000058
0000d0 c2 4c 92 3e 93 69 37 3e 25 8a 5d 3e 69 54 8a 3e
       0.28574187 0.17911367 0.21634729 0.27017525
0000e0 17 26 71 bd 62 e2 6d be a9 20 21 be c2 de 00 3d
       -0.058874216 -0.2323089 -0.15735115 0.03146244
0000f0 98 18 9d bd 8f 03 65 bd bb 0b 3f bc 86 03 22 3d
       -0.076707065 -0.055911597 -0.011660512 0.03955414
000100 94 10 02 bc 9f 57 65 3e 31 da 5d 3c f7 e2 55 be
       -0.007938523 0.22396706 0.01354079 -0.20887361
000110 77 62 0c 3e e2 d0 ab 3d c6 2b 33 bd c9 19 71 3e
       0.13709436 0.083894506 -0.043742917 0.23544993
000120 d9 40 8d bd d1 b3 08 3e b9 e4 90 3e 57 0e 35 3e
       -0.06897134 0.13349845 0.28299502 0.17681251
000130 58 3f 84 be 00 a0 c5 bd bd 01 bf 3d 0e cc c6 3d
       -0.25829577 -0.09649658 0.093265034 0.09706889
000140 6b 5c 0e be 57 84 b0 bd 83 91 30 be 18 02 94 3c
       -0.13902442 -0.08618992 -0.17243008 0.018067405
000150 86 99 3a bd f5 3a 3c 3e e9 e6 17 3e 85 3f 3e be
       -0.045556568 0.18381865 0.14834179 -0.18578918
000160 6d 3b 8f bd 95 26 28 bd d1 fe 20 3e 71 f0 41 be
       -0.069937564 -0.04105242 0.15722205 -0.18939377
000170 ee fa 4c 3e 75 bb 3b 3e 53 f9 63 3e 52 c1 eb bd
       0.20017597 0.18333228 0.22263078 -0.11511482
000180 71 69 31 be 68 19 67 3e b2 ca de 3d 48 ec 63 3e
       -0.17325379 0.22568285 0.10878505 0.22258103
000190 2f 12 8d bd a8 32 30 3e e4 86 07 be 95 37 52 be
       -0.06888234 0.17206824 -0.1323505 -0.20529015
0001a0 fe 88 a5 be 33 e0 0d 3e 1d c0 fa bd 39 f1 a7 bd
       -0.3233108 0.13855056 -0.12243674 -0.082003064
0001b0 4c 16 f6 3d fc f9 5d be 77 2c eb 3c 90 81 e1 bc
       0.120159715 -0.21677393 0.028707726 -0.0275276
0001c0 e0 7c 37 be 39 c6 52 3e 81 57 12 bd be 85 11 3e
       -0.1791873 0.20583428 -0.03572798 0.14211175
0001d0 6a 29 8f 3e 35 65 81 bd 25 32 4f 3e 5a 01 84 3e
       0.27961284 -0.06318132 0.20233972 0.2578228
0001e0 b7 0f 1a bd 08 2e 5d bd 5e bc 19 3e fa 89 71 3e
       -0.037612643 -0.053998977 0.15013263 0.2358779
0001f0 17 54 42 bd a6 10 54 be 5d eb 7a be e3 71 75 3e
       -0.047443476 -0.20709476 -0.24503846 0.23969226
000200 cd 5e 23 3d 94 af 94 3e 75 ac 98 3e b2 3f 81 be
       0.03988533 0.29040205 0.29819074 -0.25243908
000210 92 32 71 3e ac b5 b8 3e 1b 0b 82 be 3f 01 ba 3e
       0.23554447 0.36076105 -0.25399098 0.36329076
000220 5d eb 79 be 7d 9c 93 3e ac 6c 34 3e 01 15 50 3c
       -0.2440619 0.2883033 0.1761958 0.01270032
000230 ea f1 2a be 55 95 94 be 23 59 82 3e 8d 69 c5 3e
       -0.16693845 -0.2902018 0.2545863 0.3855709
000240 1e 72 11 be ec 10 ee 3d 78 9f cb bd b6 60 c0 3d
       -0.14203689 0.11624321 -0.099425256 0.09393446
000250 03 5f 3c be 44 36 62 3e d1 f8 06 3e 62 1a 1c 3c
       -0.18395619 0.22091013 0.13180853 0.0095277745
000260 f0 53 7c be e7 2f 05 3e 78 58 65 3e f7 55 94 be
       -0.24641395 0.13006555 0.2239703 -0.28971836
000270 b3 61 85 3e 9f ba ac 3e 18 b2 78 3e 67 b4 3b be
       0.260511 0.3373613 0.24286687 -0.18330537
000280 67 fa b3 be 8d 72 9f 3e 12 46 93 3e dd ae b4 3e
       -0.3515198 0.31142083 0.28764397 0.3528966
000290 04 7f 35 bd b2 0c b4 3e d4 a7 d0 bd 07 93 c0 be
       -0.044310585 0.35165936 -0.10188261 -0.37612173
0002a0 75 09 d1 be 6e de b5 3e 86 8c 7b be 7f 87 47 be
       -0.40827528 0.35521263 -0.24565324 -0.19485281
0002b0 fa f6 67 3e 21 f5 bb be f4 39 24 3e cf fc 9e be
       0.22652808 -0.36710456 0.16037732 -0.31052253
0002c0 ac ca fb bd ac f5 a8 3c a2 d8 14 be 9a ee 8f 3e
       -0.12294516 0.020624958 -0.14535764 0.28111726
0002d0 18 7a b2 3e 44 2a 74 bd 31 b5 80 3e 4a 2a 88 3e
       0.34858775 -0.05961062 0.25138238 0.26594764
0002e0 c1 51 31 3e ee 8a 8e be 35 8e a2 bd ad fd d7 3d
       0.17316343 -0.2784037 -0.0793728 0.10546432
0002f0 a0 6f 16 be e7 bb 52 be da c5 3b be a2 98 20 bc
       -0.14691019 -0.20579492 -0.18337193 -0.0098020155
000300 73 f3 95 bd 2b 68 55 be c2 cc 75 3e 3f 87 bd bd
       -0.07321825 -0.20840518 0.2400389 -0.09254312
000310 13 37 ca 3b 42 6d 98 3d 8c 93 01 3c 1a ec ed 3b
       0.006171116 0.07442714 0.007908713 0.0072608115
000320 ec 35 ae bd 48 83 10 be cf dd 02 3e 0f a5 10 be
       -0.085063785 -0.1411258 0.12779926 -0.14125465
000330 42 85 e5 bd 4e 37 18 3e f8 1d 63 3e db 2f dc bd
       -0.112070575 0.14864847 0.22179401 -0.10751315
000340 a8 17 a6 bc 36 6e 1f be e1 dd 24 bd ed 34 97 3d
       -0.020274952 -0.15569386 -0.040250663 0.07383142
000350 77 e8 c7 3d 59 25 5c bd 32 24 3a bc b0 b7 8b bd
       0.09761136 -0.053746555 -0.011361169 -0.06822145
000360 15 e0 28 3d 50 3c 17 be 1e 13 94 3d dc d6 11 bd
       0.041229326 -0.14769101 0.07230209 -0.035605296
000370 d3 fb c7 bd a1 e6 28 3d 84 b0 c9 bd de dc 57 3d
       -0.097648285 0.04123557 -0.09848121 0.05270087
000380 d6 81 ab bc c9 1c 78 3c 5a c3 15 3e 0d 91 98 bd
       -0.020935934 0.015143582 0.14625302 -0.07449541
000390 c6 a8 03 3d 63 de cd bd 48 6a ac 3d 06 0d 05 bd
       0.032143377 -0.100521825 0.08418709 -0.032483123
0003a0 b2 61 d9 3d 98 17 ea 3d 54 0b 45 3b ab a4 c7 3a
       0.10614337 0.114302814 0.0030066567 0.001523157
0003b0 2e 6b 0d 3e 06 a5 75 3d 63 38 32 be b1 9b 03 3e
       0.13810417 0.05997183 -0.17404322 0.1285236
0003c0 c5 84 0b be f3 dc 90 bc 1f b0 18 3e 83 79 b2 3d
       -0.13624866 -0.017683482 0.14910935 0.08714583
0003d0 dd ca bd bd de 05 40 3e a6 b1 ae bd a8 04 f7 bd
       -0.09267209 0.18752238 -0.085299775 -0.12061435
0003e0 18 8c 6f be 71 f0 18 3b 4b 39 16 be 50 9f 94 bb
       -0.23393285 0.0023336674 -0.14670293 -0.004535593
0003f0 c7 9e 63 3d 36 b8 9f 3c 2d ad 0f 3e 3e 88 13 3e
       0.055571344 0.019497018 0.14030905 0.14407441

transformer_encoder.0.self_attn.multihead_attn.out_proj.bias f4 [64]
000000 74 a2 f8 3d 91 cb 0f 3e 55 a7 20 3e da db 58 bc
       0.121403605 0.14042498 0.15688832 -0.01323601
000010 b9 a3 06 3e 65 3d fe bb ad ec 21 3e 59 ce 2c 3e
       0.13148393 -0.0077587836 0.15812941 0.1687559
000020 2e 00 2e bd 06 69 3c 3d 05 45 39 3e ae 61 1d 3e
       -0.04248064 0.045998596 0.18092735 0.15369293
000030 8c 80 2e 3e d3 64 2b 3e d1 26 56 bd 00 95 ea 3d
       0.17041224 0.1673768 -0.052283112 0.11454201
000040 f8 b3 c3 3d 1f 4d 0d bd b2 e3 ea 3d bf 7e ce 3d
       0.09555811 -0.034497377 0.11469211 0.10082769
000050 97 e9 36 bd de 14 05 bd b2 1f 2e 3e de d1 37 3e
       -0.044656362 -0.032490604 0.17004278 0.17951152
000060 43 7d e1 3d 76 2e a5 bd 9b f3 16 3e 3e 0b cb 3d
       0.1101022 -0.08065502 0.14741366 0.09914254
000070 bc 85 1f 3e d9 90 25 3e e5 73 33 3e 47 d9 57 3e
       0.1557836 0.16168536 0.17524679 0.21078978
000080 03 5b 0c 3e 1d 44 d0 bc d6 4b d5 bd fa 4c 9c 3d
       0.13706593 -0.025423104 -0.10414855 0.076318696
000090 f2 4e b1 3c 99 e9 b7 3d 99 91 69 bd b6 75 00 3e
       0.02164409 0.08980102 -0.05702362 0.12544903
0000a0 2c b6 19 3e 4e 88 1d bd ce 06 29 3d 2a f0 36 3e
       0.150109 -0.03846007 0.041266255 0.17865053
0000b0 db 00 93 bc 8e 5a ee bc 2f e2 27 3e ff 27 06 3e
       -0.017944744 -0.029095914 0.16394876 0.13101195
0000c0 8f e7 a1 3c c4 dc 0e 3e c1 25 13 3e d6 b9 bf bc
       0.019763736 0.13951403 0.1436987 -0.023404043
0000d0 fd 6f f2 3d 92 a0 03 3e bc 25 03 3e aa b6 19 3e
       0.11837766 0.12854221 0.12807363 0.15011087
0000e0 f7 b1 21 3e 3c 48 f2 bb 5d 5d 77 bc c2 e2 02 bd
       0.15790544 -0.007393865 -0.015097943 -0.031954534
0000f0 f1 88 f7 3d c6 aa 1e 3e 6d a0 d2 3d 54 75 66 bc
       0.120866664 0.15494832 0.10284505 -0.014066059

transformer_encoder.0.linear1.weight f4 [314, 64]
000000 ca 76 38 3d 7f fa 01 3e cb 76 3b 3c bf 3a 33 3d
       0.04503516 0.12693213 0.011441897 0.043757197
000010 d5 eb 88 3d 1d bf 95 3d 6b 8d 4c 3e de 4a f9 3c
       0.066856064 0.073118426 0.19975822 0.030431207
000020 e6 a8 b4 bd 90 28 f8 3d c7 77 d1 3d 30 ae e7 bd
       -0.08821277 0.12117112 0.10227924 -0.113125205
000030 9e 77 ae bd 45 d1 11 3e 3a ae 3f 3d cb 43 09 bd
       -0.08518909 0.14239986 0.046797015 -0.033511918
000040 4a cf b5 3d 8e 55 a1 3c 76 da 7d 3d 55 08 f1 3d
       0.08877428 0.019694116 0.06197592 0.11769167
000050 7b 34 01 3e d3 ce 3d be d2 af d0 bb f7 38 42 3c
       0.12617676 -0.18535928 -0.0063686157 0.011854402
000060 43 48 d4 ba b9 d6 07 3d 3b 31 24 3e 8e 3a e8 3d
       -0.0016195852 0.03316376 0.16034405 0.113392934
000070 bd 2b 02 3e 31 2f 94 3d b6 39 cd 3d 84 bc 92 3d
       0.12711997 0.072355635 0.10020773 0.07164863
000080 f5 71 44 3d 71 3f bf 3d aa 9b bb 3c 40 c1 cd 3d
       0.04796024 0.09338272 0.022901375 0.10046625
000090 06 aa 80 bd a6 e2 ea bc 40 e4 8e 3d 5c 66 12 3e
       -0.062824294 -0.028672528 0.06977129 0.1429686
0000a0 a9 06 50 bc 83 00 9b bd dc 38 ea bc 16 ed 16 bd
       -0.0126969 -0.07568457 -0.028591566 -0.036847197
0000b0 04 dc 64 3c ee ba 40 3e 64 2c cd 3c 8d 21 1b 3e
       0.013968471 0.18821308 0.025045581 0.15149517
0000c0 fa de ae 3d 31 4c e3 3d b1 99 89 bd 0c bf a6 bd
       0.08538623 0.11098517 -0.067187674 -0.08141908
0000d0 3d 05 8f bc 9d 62 28 3d f1 4e 36 3d 9a b2 8c bd
       -0.017458552 0.04110967 0.04450888 -0.06870003
0000e0 a3 b9 f6 3b 75 a7 4f bc ca 30 63 bd e0 e0 db 3d
       0.007529454 -0.012674202 -0.05546645 0.10736251
0000f0 85 36 92 3d 94 08 20 3d c6 44 24 3b 55 65 ff bc
       0.07139305 0.03907068 0.0025065406 -0.031176249
000100 a3 c9 6d bd 84 f3 c0 3d bf e5 28 3d 1d b3 53 bd
       -0.058053624 0.09421447 0.041234728 -0.051684488
000110 02 ee 07 3e 46 f2 ed bd 09 6c de 3c 5e 7c f9 3b
       0.13274387 -0.116184756 0.027151125 0.0076137027
000120 e8 89 49 3d 08 6e 60 bd a8 8f f8 bb 7c 15 33 3e
       0.049203783 -0.054792434 -0.0075854845 0.17488664
000130 97 af 91 3d 98 2b 99 3c b5 71 0e 3d c9 2b e9 3d
       0.07113569 0.018697545 0.03477641 0.113853045
000140 2a 41 e1 bc e0 c5 00 3e 75 ed 96 bc 82 67 48 bd
       -0.027496893 0.12575483 -0.018423775 -0.048926838
000150 fd d3 33 3b 99 55 85 3d 5b 7c a1 bd 46 94 0d 3e
       0.0027439587 0.06510467 -0.07885047 0.13826093
000160 14 05 d6 3d cd 0e 50 bc 6c a6 ca 3d 96 ec 8f 3d
       0.10450187 -0.012698841 0.09895024 0.07027547
000170 58 3a a1 3d 3e a1 07 3e 30 bf b6 bc 8c fc 95 3d
       0.07872456 0.13245103 -0.022307962 0.0732356
000180 b1 b7 18 3e fd f8 11 3e 75 17 71 3d 68 89 1a 3e
       0.14913823 0.14255138 0.05886026 0.15091479
000190 8d f0 0e 3e 2b 3c d9 bc 14 1b d9 3d 70 f0 f7 bc
       0.1395895 -0.026517948 0.10600868 -0.030266017
0001a0 fb c4 ae 3c af 1e 54 3e 4b ea 05 3e a6 1c e2 3c
       0.021334162 0.2071483 0.13077657 0.027601551
0001b0 ec e7 50 3d 86 7c f4 3c 08 41 5d bd a1 65 b5 3d
       0.051002428 0.029844534 -0.054017097 0.08857275
0001c0 56 26 25 3e 18 25 a9 3d 0f 11 04 3d 5b cb d5 bd
       0.16127905 0.08259028 0.03224283 -0.104391776
0001d0 13 8f 7d 3e ff 94 c9 3d 54 93 ce bd 9b 84 10 bd
       0.2476161 0.09842872 -0.10086694 -0.035282712
0001e0 7f 18 1e 3e 35 92 2a 3e b6 a4 3b bd 84 2b 99 3d
       0.15439032 0.16657336 -0.045811377 0.07479003
0001f0 14 5e f8 3c 1a c0 30 3d f4 49 0d bc 35 1a 2b 3e
       0.030318297 0.043151952 -0.008623589 0.16709216
000200 92 20 94 3c a9 db 0c bd ff 02 cb 3c 5d c0 59 bd
       0.018081937 -0.03438917 0.024781702 -0.053161968
000210 3b b0 fd 3d 8f 28 e8 3d 24 9c b5 3d 78 91 62 bd
       0.12387129 0.11335861 0.08867672 -0.05531451
000220 94 4e 38 3c b1 ee e4 3c 6f 87 ac bd ac bf dc 3d
       0.011249203 0.027945848 -0.084242694 0.10778746
000230 1a 4a 8d bd 16 f2 ad 3d 69 63 25 3d ea da 23 3d
       -0.068988994 0.0849344 0.040378008 0.040003695
000240 2b 15 83 3c c3 2d 67 bd f7 32 90 bc 83 d0 48 bd
       0.016001305 -0.056440126 -0.017602427 -0.049026977
000250 0c b7 4c 3d d7 8f 9d bd 05 6f 1e 3d b2 45 af 3d
       0.049979255 -0.07693451 0.038680095 0.08558215
000260 17 9c 91 bd e9 78 5c bc 3e e7 2b bc 6c 63 28 bd
       -0.0710985 -0.013456562 -0.010492144 -0.04111044
000270 ca 9b af 3c fd 4b a8 bd 32 36 26 3d 6d 71 22 3d
       0.02143659 -0.082176186 0.04057903 0.039658953
000280 7b c7 2c 3c 7b 4f da 3d 9b 81 41 3d b1 e7 82 3d
       0.010545607 0.10659691 0.047242742 0.06391848
000290 78 21 cb 3d 54 9c ab 3d dc 91 30 bd 23 0d b1 bd
       0.09918493 0.083794266 -0.043107852 -0.08645084
0002a0 1e ad cb bd 5e 0e f2 3c 3d f7 c6 bd 87 d0 6d bd
       -0.09945129 0.029547866 -0.09715126 -0.058060195
0002b0 11 55 95 3d cf c4 d9 bc f2 98 eb 3d 9a e6 a5 bc
       0.07291616 -0.026583103 0.115037814 -0.020251561
0002c0 a0 1b 0b bd 7c 1b ad bd 9a 88 93 3d b2 44 c2 bd
       -0.033961892 -0.08452508 0.07203789 -0.09485759
0002d0 b8 5a b2 3c 92 8f 5e bd 1f 2a 4b bd 45 f0 0f 3d
       0.021771774 -0.054336138 -0.049600717 0.03514125
0002e0 df 07 bf 3c 64 7d 76 3c 2d 5e 7e 3d be 52 9f 3d
       0.023319183 0.015044544 0.06210153 0.07779454
0002f0 fc 72 9b 3d 5f 0d d7 bc 4e 70 cc 3d 83 16 19 3e
       0.07590291 -0.026251493 0.09982358 0.14949994
000300 38 dd 0d 3e 8b ef a9 3d 69 74 00 3e 4f ba 58 bc
       0.1385392 0.08297642 0.12544407 -0.013228013
000310 a6 19 cd 3d e1 68 ad 3d ee 8b ad bd ad 40 47 bd
       0.10014658 0.0846727 -0.08473955 -0.048645664
000320 05 be 9a bc 91 e7 8f bd 11 87 d2 3d 60 8e 02 3f
       -0.018889436 -0.0702659 0.10279668 0.50998497
000330 87 f0 07 3e ca 07 11 bd ff 67 b5 bd 78 8e b7 3d
       0.13275348 -0.03540782 -0.08857726 0.08962721
000340 ea e4 ad bd 65 49 44 bd 6f 68 91 3d a7 4c 4d 3d
       -0.084909275 -0.047921557 0.07099997 0.05012193
000350 af 51 84 3b e1 36 4a 3d c9 ef 0f 3e eb 4e 66 bc
       0.0040380578 0.049368743 0.14056315 -0.014056901
000360 35 cd ad 3d f7 8f 86 3d e5 91 09 3d ca 94 d8 bc
       0.08486406 0.06570428 0.0335864 -0.026438136
000370 0f 4a e8 bc c9 1b fb 3d ea e9 09 3d 66 5e 5e 3d
       -0.028355626 0.12261159 0.033670343 0.054289244
000380 2f b9 91 3d e1 e7 9e bd c5 dc 58 3d c7 eb 24 3d
       0.07115399 -0.07759071 0.052944917 0.040263917
000390 16 57 ba 3d 78 d9 e7 3d 19 2f ac bd cf fd cd bc
       0.090986416 0.11320776 -0.08407421 -0.02514544
0003a0 9b fb ad bd 07 6a 79 bc 81 ef c0 3d 80 d3 fe 3d
       -0.084952556 -0.015223033 0.09420682 0.12442684
0003b0 cf ce a3 bd 20 ab 92 3d 02 61 0b 3e e2 63 02 bd
       -0.0799843 0.07161546 0.13611224 -0.031833537
0003c0 7a 9d 1f 3d fe 01 ff 3c a5 f8 98 bd ac af 67 3d
       0.03896854 0.03112888 -0.074693 0.056564018
0003d0 d4 a3 93 bd 75 05 e0 3d 79 68 55 3d 8e dd d7 3b
       -0.07208982 0.10938541 0.052101586 0.0065876907
0003e0 8d ed f7 3d 2c 36 79 3d 01 d4 31 b9 4d 77 07 be
       0.12105856 0.060842678 -0.00016959013 -0.13229103
0003f0 99 f8 fd 3d 33 b6 ca 3d 67 ff a0 3d 83 d7 ae bd
       0.12400932 0.09898033 0.07861214 -0.08537199
