train_result/A300_i100_o10_lr0.02_sub100/model_2024-09-10_15-45-42.pth (torch, 714299 bytes, 32 tensors)

project_inp.weight f4 [64, 314]
000000 18 55 3c be 36 3f 30 be fd aa 43 be 10 8d 40 be
       -0.18391836 -0.17211613 -0.19108196 -0.18803811
000010 2c f1 13 3e 92 90 53 be a2 6e 2a be 1e a8 61 be
       0.14447469 -0.20660618 -0.16643766 -0.22036788
000020 0b 18 0b be de f7 4f be 04 d2 4c be c6 89 1a 3e
       -0.1358339 -0.20309398 -0.2000199 0.15091619
000030 b5 70 fa bd 38 d7 39 be 79 76 05 be 9d ee 48 be
       -0.122285284 -0.18148506 -0.13033475 -0.19622274
000040 31 a1 5f be ab 92 58 be dc 9d 59 be 9e 1b 9c 3b
       -0.21838833 -0.211497 -0.21251625 0.0047640344
000050 fc c9 4d be 02 5e 07 3e 27 38 3b be ee ac 0e be
       -0.20096582 0.13219455 -0.18283139 -0.13933155
000060 9c bf 3a 3e fc 93 4f be bc 19 38 3e e1 8e f3 bd
       0.18237156 -0.20271295 0.17978567 -0.11892486
000070 f3 13 09 3e 2a 62 0d be 38 19 44 be 0b 73 25 3e
       0.13386516 -0.13806978 -0.19150245 0.16157167
000080 6a 25 14 be 20 b3 35 be b0 43 10 be e1 09 4f 3e
       -0.14467397 -0.17744112 -0.1408832 0.20218612
000090 4f a1 3f be 03 eb 4f 3e 3e f5 1c be d5 15 65 3e
       -0.18713878 0.20304494 -0.15327927 0.2237161
0000a0 8c 0f 0e be 15 7d 5b be 53 66 66 3e 8f f8 11 3e
       -0.13873118 -0.21434434 0.22499971 0.14254974
0000b0 4f b9 fb 3d 0a 53 56 3e 94 60 1b 3e a1 4a 12 3e
       0.12291204 0.20930114 0.1517356 0.14286281
0000c0 e7 c3 52 3e 0a 1e 06 3e ed 2e 32 3e 55 c3 fb bd
       0.20582543 0.13097396 0.17400713 -0.12293116
0000d0 fa 4d 09 3e 38 92 5d 3e 78 30 ea 3d c1 99 40 3e
       0.13408652 0.2163781 0.11435026 0.18808652
0000e0 89 2b 3e 3e f5 7c 01 3e 1c 19 07 3e e2 f1 e9 3d
       0.18571295 0.12645324 0.13193172 0.114230886
0000f0 e8 3f 58 3e 26 9a f7 3d ba 2d 60 3e e3 0f 0c 3e
       0.21118128 0.12089948 0.21892443 0.13677935
000100 67 37 63 3e 36 69 2f 3e e1 92 3c 3e c5 a9 3e 3e
       0.22189103 0.17129979 0.18415405 0.1861945
000110 67 95 13 3e 74 c9 01 3e b3 77 06 3e c9 89 29 be
       0.14412461 0.12674505 0.13131599 -0.16556467
000120 d2 a6 f6 3d 78 4c 14 3e 86 4a 59 3e 8b 85 48 3e
       0.12043537 0.14482296 0.21219835 0.19582193
000130 df 1a 1a 3e 8c b2 fe 3d 5a e3 09 3e 20 ee 24 be
       0.15049313 0.12436399 0.13465634 -0.16106462
000140 0b e5 06 3e 50 78 63 be 64 a7 17 3e 41 c1 04 3e
       0.1317331 -0.22213864 0.14809948 0.12964346
000150 52 44 55 3e f4 61 12 3e 33 53 51 3e 11 4d 07 be
       0.20826843 0.14295179 0.20441894 -0.13212992
000160 a0 7c 3c be 18 60 0d be c9 3a 26 be 4b fc 5e be
       -0.18406916 -0.13806188 -0.16233362 -0.2177593
000170 55 03 68 be e9 b4 48 be 3c fc e9 bd 38 05 26 be
       -0.22657521 -0.19600262 -0.11425063 -0.16212928
000180 b2 91 3f be 49 0a 02 3e 1a aa 07 be 16 33 4b 3e
       -0.18707922 0.12699236 -0.13248482 0.19843706
000190 35 bc 03 3e c2 22 62 3e 76 23 43 3e 4f e3 35 3e
       0.12864764 0.22083572 0.19056496 0.17762493
0001a0 e5 cd 0c 3e 2c 2f 65 3e 39 13 ec bd 15 f9 56 be
       0.13750418 0.22381276 -0.11527104 -0.20993455
0001b0 4d 6d 2b be 83 78 ea 3d d8 cf 1d 3e a0 1e 24 3e
       -0.16740914 0.11448767 0.15411317 0.16027308
0001c0 8e f4 f3 3d 3a 75 26 3e e1 09 1f be ef 45 15 be
       0.119118795 0.16255656 -0.15531112 -0.14577459
0001d0 23 70 47 be d0 87 48 be 36 c7 08 be c9 4f f4 bd
       -0.1947637 -0.19583058 -0.13357243 -0.1192928
0001e0 d0 fb 51 be d9 47 fb bd a8 a3 04 3e 72 5d fb bd
       -0.20506215 -0.12269563 0.12953055 -0.12273683
0001f0 f4 d4 11 be ec 83 30 be f7 83 3d 3e 48 fa 17 3e
       -0.14241391 -0.17237824 0.18507372 0.14841568
000200 f3 a6 18 be 71 b1 ff 3d 4b 7f 16 3e 7a 34 62 3e
       -0.14907436 0.12485016 0.14696996 0.2209033
000210 99 56 0f 3e 1e 8f 41 3e de 20 00 3e c2 dd 1d 3e
       0.13997878 0.18902251 0.12512538 0.15416625
000220 ec 31 37 3e f8 56 ed 3d fd 8c 38 be 3a 47 29 be
       0.17890137 0.115888536 -0.18022533 -0.16531077
000230 cd 04 27 be 22 03 26 be b2 23 37 be 57 00 17 be
       -0.16310425 -0.16212133 -0.1788471 -0.14746223
000240 6d d8 2b be 85 5f 21 be 7c b4 64 be 33 e6 43 be
       -0.16781779 -0.15759094 -0.22334474 -0.19130783
000250 ef 50 42 be ab 1d 57 be 8b dc e8 bd 2f 51 59 be
       -0.18976186 -0.21007411 -0.1137019 -0.21222375
000260 e8 8c 35 3e 28 da 07 be 85 3d 61 be 3c 75 5d be
       0.17729533 -0.13266814 -0.21996124 -0.21626753
000270 31 25 13 be 28 55 32 be 73 92 0a be 73 a0 04 be
       -0.14369656 -0.17415297 -0.13532428 -0.12951832
000280 26 22 5e be bc 54 36 be 9d 3e 00 be 23 47 2d be
       -0.21692714 -0.17805761 -0.12523885 -0.16921668
000290 7d 46 3f 3e 11 d8 35 be 28 07 51 be 02 60 36 be
       0.18679233 -0.17758204 -0.20412886 -0.17810062
0002a0 bf 27 16 be f8 ef 1c 3e 3b 71 2d be be 8b 1f be
       -0.146636 0.15325916 -0.16937725 -0.15580651
0002b0 bb bc 13 be 16 4b 40 3e dd 4c 1a be b5 68 40 3e
       -0.14427464 0.18778643 -0.15068384 0.18789943
0002c0 44 ba 28 be f7 f8 1e 3e 26 5d 4b be 60 12 46 be
       -0.16477305 0.1552466 -0.19859752 -0.19342947
0002d0 35 3a 04 be c8 db f8 3d eb 14 37 be 1d b9 66 be
       -0.12912829 0.12151295 -0.17879073 -0.22531553
0002e0 6a 6d 32 be f2 9d 40 be 62 b1 e7 bd 75 c9 30 3e
       -0.1742455 -0.18810251 -0.1131313 0.1726435
0002f0 d2 6a 07 3e 15 73 64 3e 75 11 25 3e e0 d4 fd 3d
       0.13224342 0.22309525 0.1611994 0.12394118
000300 6f 6f 51 3e 48 f5 32 3e 7d b1 45 3e 1f 19 32 3e
       0.20452665 0.1747638 0.19305988 0.17392395
000310 59 57 29 3e 61 e2 4e 3e 56 90 32 3e 45 f7 5d 3e
       0.16537227 0.20203544 0.17437872 0.21676357
000320 c0 1c 00 3e 68 9a 21 3e e6 80 2f be aa e9 38 3e
       0.12510967 0.15781558 -0.17139015 0.18057886
000330 59 1c 1e 3e 59 97 55 3e 9a 60 3e 3e c0 96 62 3e
       0.15440501 0.20858516 0.18591538 0.22127819
000340 24 f2 39 3e eb 4d 2b 3e b5 71 0a 3e 9b cf 3a 3e
       0.18158776 0.16728942 0.13519938 0.18243258
000350 df b6 1e 3e da f7 14 3e f9 40 33 3e 72 d2 21 3e
       0.15499447 0.14547673 0.17505254 0.15802935
000360 d8 45 65 3e c4 28 1d 3e 2c 0c 59 3e 85 46 25 3e
       0.22389925 0.15347582 0.2119605 0.16140182
000370 d3 40 01 3e 3d c3 34 be 1d 4c 11 3e bd 17 52 3e
       0.12622385 -0.17652602 0.14189191 0.20516868
000380 a8 4f 4e 3e 3e 98 3c 3e 9b 24 60 3e d1 33 55 3e
       0.20147574 0.18417451 0.21888964 0.20820548
000390 0e b5 21 3e 9d 6f 5a 3e 34 3f ea bd e9 02 02 3e
       0.15791723 0.2133164 -0.11437836 0.12696423
0003a0 ea 3b 28 3e b9 4c 65 3e 69 b7 fd 3d 1f 6a 5c 3e
       0.16429105 0.22392549 0.12388498 0.21524857
0003b0 35 b3 0c 3e be 0a 55 3e 26 a3 eb 3d e9 b8 f9 bd
       0.13740237 0.20804879 0.115057275 -0.12193472
0003c0 c6 c5 60 be cd 81 3d be 88 8a 4b be 24 8d 3c be
       -0.21950445 -0.18506546 -0.19877064 -0.18413216
0003d0 21 34 25 be 96 e3 42 be 43 1c 2b be c5 08 1b be
       -0.16133167 -0.1903213 -0.1671 -0.15140064
0003e0 f3 07 fd 3d 9f 99 47 be 5d 4a 51 be 83 cf 46 3e
       0.12355032 -0.19492196 -0.20438524 0.19415097
0003f0 08 62 10 be 2d 6f 5e 3e c9 86 47 3e 3a 5b 4e 3e
       -0.14099896 0.21722098 0.1948501 0.20151988

project_inp.bias f4 [64]
000000 2f 5e 63 be 3f c1 91 bd 80 a0 f0 bd ed db 42 bd
       -0.22203897 -0.07116937 -0.11749363 -0.04757302
000010 d3 b1 fa bd f9 32 22 be eb ca a7 bd d1 54 bc bd
       -0.122409485 -0.15839757 -0.081930004 -0.09195865
000020 2c 4f 2a be 49 84 e0 bd a8 c5 f3 bd cd fc 32 bd
       -0.16631764 -0.109627314 -0.11902934 -0.04369812
000030 71 d0 19 be 39 03 48 be e1 aa 97 bd a6 d0 2f bd
       -0.1502092 -0.1953248 -0.074056394 -0.042923592
000040 0b 35 da bd a5 d6 c1 bd 15 d5 9d bd 0e c0 0f be
       -0.106546484 -0.09464768 -0.07706658 -0.14038107
000050 f4 6e 86 bd 40 32 0f be e9 b3 03 be 27 28 54 bc
       -0.065641314 -0.13984013 -0.12861599 -0.012949026
000060 04 31 c7 bd 7d 60 39 be e4 b3 a0 bd 36 17 e2 bc
       -0.09726146 -0.18103214 -0.078468114 -0.027598958
000070 d6 81 2a be 04 33 05 be 59 c7 d6 bd 96 c3 93 bd
       -0.16651091 -0.13007742 -0.10487241 -0.072150394
000080 3f ae 3e be b8 3d a8 bd f8 5b 71 bd fd 35 8a bd
       -0.18621157 -0.08214897 -0.0589256 -0.06748579
000090 7c e1 7c bd d4 7d cc bd f4 dd 9b bd 19 1e 11 be
       -0.061738476 -0.09984937 -0.076106936 -0.14171638
0000a0 02 02 97 bd 1b 0c bd bd d7 f4 02 be 93 89 3a be
       -0.0737343 -0.092308246 -0.12788711 -0.18216543
0000b0 a8 47 08 bd cb 7e 84 bd 0a 08 0a be 6c cd 4a be
       -0.03327146 -0.06469496 -0.13479629 -0.19804925
0000c0 90 5e 0a be 59 f5 e9 bd 52 cc a8 3a 3b ab 68 bd
       -0.13512635 -0.114237495 0.0012878275 -0.056803923
0000d0 83 d0 f9 bc 56 a6 81 bd 62 bd 9f bd 12 3b 49 bd
       -0.030494934 -0.06330554 -0.07799794 -0.0491286
0000e0 f3 36 f9 bd bc 75 ab bd d9 7e 33 be a1 52 ca bd
       -0.12168684 -0.083720654 -0.17528857 -0.098790415
0000f0 67 7f 05 bd 97 05 bc bd 26 20 fb bd d2 86 3d be
       -0.032592203 -0.09180754 -0.12261991 -0.18508461

transformer_encoder.0.self_attn.in_proj_weight f4 [192, 64]
000000 ef 19 60 3e 93 a0 7d be e3 f2 9c 3c c7 53 6e 3e
       0.21884893 -0.24768285 0.019158786 0.23274146
000010 7a 27 57 3e 10 79 60 3e a4 52 d1 3d 94 da f2 3d
       0.21011153 0.21921182 0.102208406 0.11858097
000020 fd 55 13 3e ea 26 17 bd f8 12 74 3e 34 b5 15 3d
       0.1438827 -0.036902346 0.23835361 0.036549762
000030 7a 4e a7 3c 57 aa 76 3e 7b 70 11 bd 47 69 2d 3e
       0.020423163 0.24088417 -0.03550766 0.16934691
000040 69 83 a2 bd 90 d1 fd 3c 79 72 58 be e5 df 17 3e
       -0.07935221 0.030983716 -0.21137418 0.14831503
000050 c3 84 23 3d 87 69 89 bd ae ba a2 bd c9 2a 81 3e
       0.039921533 -0.06709581 -0.079457626 0.25227955
000060 2a df 28 3d de 48 f3 bc 07 bd 9d 3e 1f f2 88 3e
       0.04122845 -0.029697832 0.3080828 0.26747224
000070 58 58 04 bd 9e a0 18 3e c9 1c d4 3a 86 2f 76 3e
       -0.032310814 0.1490502 0.0016182895 0.24041566
000080 e4 d6 44 3d 16 1f 32 bd 4c 15 f9 bd 11 53 09 3e
       0.0480565 -0.043486677 -0.12162265 0.13410594
000090 53 96 0b be 17 48 7a 3e be 20 47 bd 73 e9 95 3e
       -0.13631563 0.24441563 -0.04861521 0.2927967
0000a0 4c f0 4f 3e 81 60 20 bd 19 b7 1a be 0f fc ce 3d
       0.2030651 -0.039154533 -0.15108909 0.1010667
0000b0 9f c3 55 3e 55 53 b9 3d 26 72 3a 3c 9f c0 1e 3e
       0.20875405 0.090490974 0.011379754 0.15503167
0000c0 a1 d1 95 bb 04 57 36 3e 7c 74 b3 3d 4b ca c6 3d
       -0.004572109 0.17806631 0.08762452 0.09706553
0000d0 fa 93 6c bd 5b 5d 37 3e 4d c7 98 3d 41 85 22 3e
       -0.05775831 0.17906706 0.074598886 0.15871145
0000e0 9e 98 ad 3d db 44 c9 3d 71 57 59 3d a9 dd 83 3e
       0.08476375 0.09827586 0.053061906 0.2575505
0000f0 ab 30 92 bb 6d 04 66 be 2e c2 12 3e ee 29 34 3d
       -0.004461368 -0.22462626 0.14331886 0.0439853
000100 bc 07 ae 3d aa 8b 11 be 80 ad 19 39 67 97 5c 3e
       0.08497569 -0.14213434 0.00014655851 0.2154213
000110 38 b0 01 3e d6 31 39 3c 43 b2 c4 bd d3 07 1a 3e
       0.12664878 0.011303386 -0.09604313 0.15042047
000120 7f d7 a7 3d 8e 7c 05 be 92 7f a0 bc dd 1c 2a be
       0.081953995 -0.13035795 -0.01959208 -0.16612573
000130 1d e8 ad 3b ad 06 09 3e e3 7c 7d be df 44 1a 3e
       0.005307211 0.13381453 -0.24754672 0.15065335
000140 77 8e f4 bc 9a 6c 29 3e a8 13 8a bd c8 ee 62 3e
       -0.029853089 0.16545334 -0.067420304 0.221614
000150 b3 73 0a bd a4 87 52 be b1 c3 95 be f5 33 27 bb
       -0.033801746 -0.20559555 -0.29250863 -0.0025513147
000160 0e f0 2b 3e 85 12 69 3e d7 80 ad 3d f1 27 05 3e
       0.16790792 0.22760971 0.0847184 0.13003518
000170 3b ca 72 3e 6d f0 63 3b bc ac 7b be 36 3c 17 3e
       0.23709957 0.0034780756 -0.24577612 0.14769062
000180 2e 3e b5 3d 86 74 39 3e be f4 2d be 04 ec 06 3e
       0.088497505 0.18110856 -0.16987893 0.1317597
000190 53 90 8b be bf 87 a0 3d cf 88 39 be c1 54 57 bd
       -0.27258548 0.078383915 -0.18118595 -0.052571062
0001a0 1d d5 8c 3e dc c1 49 3e 6a dc a1 bc cd 5c 71 3e
       0.27506343 0.19702858 -0.019758422 0.23570557
0001b0 78 c3 88 3d 7e 85 36 bd 3b 07 6b 3e 23 30 e4 3d
       0.06677908 -0.0445609 0.22951977 0.11141994
0001c0 cb 75 4e be f1 67 7f 3e 05 e5 56 3e 18 6c 8d 3d
       -0.20162122 0.24941994 0.20985802 0.06905383
0001d0 4c 25 07 be 1e 8b 61 3e 4b 32 8f bc 07 3b 83 3e
       -0.13197821 0.22025725 -0.017480036 0.25630972
0001e0 a0 a3 0c bc 47 80 77 bc 4f 68 1a 3d c0 c0 9a 3d
       -0.008583933 -0.015106267 0.037697133 0.075562954
0001f0 94 f4 60 3e 8a 27 06 be c0 33 17 3e 90 82 08 3e
       0.21968299 -0.1310102 0.14765835 0.13331056
000200 c9 e3 38 3d 2b 5b f7 3d 79 42 8f 3e 4b 72 f1 bd
       0.045139108 0.12077936 0.27980402 -0.11789378
000210 f5 c9 38 be 33 bd a5 bd 5b e8 88 3e fd 97 3a be
       -0.1804579 -0.080927275 0.26739773 -0.18222041
000220 3c 11 62 be c3 05 06 bd 8a 40 f2 bd 90 ef 55 3e
       -0.22076887 -0.03272034 -0.11828716 0.20892167
000230 d5 11 5c be 73 d9 2a be 5e e1 2a bc c1 25 24 be
       -0.21491177 -0.16684513 -0.010429708 -0.16030027
000240 3d 0c 84 3d e9 b2 37 bd 10 de 19 3e 8b 2c 72 be
       0.06447647 -0.044848356 0.15026116 -0.23649804
000250 50 62 88 3c 25 55 c1 3c b1 fd 76 3d 78 67 b2 3b
       0.016648442 0.02360017 0.060300533 0.0054444633
000260 2a b2 d9 bd 50 e1 49 be 06 35 3a be e5 36 1a 3d
       -0.10629685 -0.19714856 -0.1818429 0.037650008
000270 69 2c 85 be 75 59 2a be ee 66 48 3d dc 37 59 be
       -0.26010445 -0.16635688 0.048926286 -0.21212715
000280 18 4d 77 be 9d 14 9b bd 57 d9 15 3e 24 8a 16 be
       -0.24150503 -0.07572291 0.1463369 -0.14701134
000290 be 35 90 3e ab 3b 7a bd 7e fe 25 3d 1a d8 c5 bd
       0.28166002 -0.06109206 0.040525906 -0.09660359
0002a0 02 fb 82 bd 52 28 07 bd 87 e8 f6 3d 94 11 a0 bc
       -0.06395532 -0.032997437 0.1205607 -0.019539632
0002b0 ec bd c7 bd 60 5f 80 3c 30 42 93 be 8a 9b 58 be
       -0.097530216 0.015670478 -0.28761435 -0.21153083
0002c0 56 2a b2 3c ae 4e 97 be b8 95 56 be 9b 85 82 bc
       0.021748703 -0.29552215 -0.2095555 -0.015932849
0002d0 54 7f 17 3e 71 1d 04 be bb ee 62 3c f2 6c 88 bd
       0.14794666 -0.12901856 0.013850863 -0.06661405
0002e0 d3 d4 b7 bd a4 1d c8 3c c8 7d 55 be c5 3a 0f be
       -0.0897614 0.024428196 -0.20848763 -0.13987263
0002f0 7a 9e 0f be f3 16 7c bd 0d 89 f5 bc f3 a2 94 be
       -0.14025298 -0.061545324 -0.029972577 -0.2903057
000300 49 ef 0e be b7 53 90 3e 84 f8 07 bd eb 4b dd bc
       -0.13958468 0.2818887 -0.033195987 -0.02701374
000310 29 0f db bd d5 62 6e be db b1 78 3e 81 8e 95 3c
       -0.10696251 -0.23279889 0.24286596 0.018256428
000320 fa 7f 26 be 20 79 35 3e db 71 b9 bc f2 ba 41 3e
       -0.16259757 0.17721987 -0.022637298 0.1891897
000330 5b 1d 30 be b2 45 4f bd 08 0f c3 3d bb 71 81 bd
       -0.17198698 -0.050603576 0.09524351 -0.063205205
000340 86 cf 2a bb fe a4 62 be 2f 15 8d bc 94 bc a4 3c
       -0.0026063635 -0.22133252 -0.017222015 0.020109452
000350 ce 13 aa bc 89 d2 44 3e 6f b2 33 3e ef fc 52 be
       -0.020761397 0.19220938 0.17548536 -0.20604299
000360 30 fd b5 bc 4a 3d 64 bc 62 0b 50 be 7e 45 84 be
       -0.022215456 -0.013930628 -0.20316842 -0.25834268
000370 b4 e7 45 be 9a 6a 07 be 84 99 55 3e ae 23 60 bd
       -0.19326669 -0.13224259 0.20859343 -0.054721527
000380 3b 31 92 bd 4b 35 47 be 81 8f b9 3d a6 9d af bd
       -0.07138296 -0.19453923 0.09060574 -0.08574991
000390 b0 ec 3b bd 89 e6 1e be 26 d5 d9 3d 74 51 74 be
       -0.04588002 -0.1551763 0.10636358 -0.23859197
0003a0 35 ee 02 be a1 5d 6e be d0 36 e4 bc 31 c4 75 be
       -0.12786181 -0.23277904 -0.027858168 -0.24000622
0003b0 60 a4 24 be 79 0c 9a 3d 68 db 89 bc 13 d1 f1 bd
       -0.16078329 0.0752191 -0.016828254 -0.11807456
0003c0 a4 8c ab 3c 9d c7 f2 bc a5 96 5f be bb 56 08 3e
       0.020941086 -0.029636199 -0.2183481 0.13314335
0003d0 9e 3b ae 3d ad 2b 58 bc 5c 37 a7 3c 66 5e 6b be
       0.08507465 -0.013194007 0.02041214 -0.22985229
0003e0 8e 7b 52 be a3 56 13 3e fd 6a f3 bc 91 ba 63 be
       -0.20554945 0.14388518 -0.029714102 -0.22239138
0003f0 f0 2f 87 be 6b b2 02 3e 52 1e 62 be 8f c3 96 bc
       -0.2640376 0.12763374 -0.22081879 -0.018403796

transformer_encoder.0.self_attn.in_proj_bias f4 [192]
000000 7c 91 2d be 7d 41 d1 bc 30 1e 56 3d 3e 79 0c 3e
       -0.16950029 -0.025543923 0.052274883 0.13718125
000010 10 99 50 bd 52 72 1c be 6f 24 20 3e 1c 96 92 3d
       -0.05092722 -0.15277985 0.15638898 0.07157537
000020 bc 13 88 3d b8 dd a5 3d 98 b3 1f 3e fc b0 9e bc
       0.06644389 0.0809893 0.15595853 -0.019371502
000030 a0 8d 18 be 9e 34 00 be 95 57 2b be dd 05 dc 3d
       -0.14897776 -0.12520072 -0.16732629 0.10743306
000040 96 c9 7e 3d 6d 82 06 3d 54 30 66 3d 27 28 ed 3d
       0.062203966 0.032839227 0.056198433 0.11579924
000050 a2 1e 17 be cf 04 17 3e 6d 9c 9a 3c a1 2e 14 be
       -0.14757779 0.14747928 0.018873418 -0.14470913
000060 22 b6 b6 bd 5f 5d 20 3e 7d f0 86 bd 5c b3 2c 3e
       -0.08921458 0.15660618 -0.06588838 0.16865295
000070 23 4f 31 be d6 81 d1 bd f0 9f 12 be 5d 94 2d 3e
       -0.17315345 -0.10229842 -0.14318824 0.16951127
000080 1b 89 2c bd 65 b4 3a 3d d5 eb 7c 3d 2e 1a 2e 3e
       -0.04212294 0.045582194 0.061748344 0.17002174
000090 1f f4 9c bd 75 30 2a 3e 85 70 71 3d 1e a6 2a be
       -0.0766375 0.16620047 0.058945198 -0.16664931
0000a0 36 93 93 3d 20 2d 2a 3e dd f6 5d bd 52 2d 30 3e
       0.07205813 0.16618776 -0.054190505 0.17204788
0000b0 32 ec 16 be 78 9e d1 bc 55 60 68 3d 62 70 63 bb
       -0.14738539 -0.02558826 0.056732494 -0.0034704437
0000c0 6d a3 2c be 78 a6 9f 3d 53 82 2c bd 2d 90 94 3d
       -0.16859217 0.07795423 -0.042116474 0.07254062
0000d0 c2 c4 1f 3e 00 77 06 3e bc af 2d 3e 44 bc b0 3d
       0.15602401 0.13131332 0.16961569 0.08629659
0000e0 a4 c7 0b 3e 16 d2 17 be 66 01 9d 3d 7a 00 b1 3d
       0.13650376 -0.14826235 0.07666282 0.08642669
0000f0 e9 cf 2d 3e ba f0 90 bd 70 ca 63 3d 1f ec 1e be
       0.16973843 -0.07077165 0.05561298 -0.1551976
000100 41 a3 62 bd b7 a7 48 bd 80 a1 88 3d 5f 72 44 bd
       -0.055331472 -0.04898807 0.06671429 -0.047960635
000110 8d 1b 20 3d 85 53 67 bd 5a 72 08 3c fa d3 24 bd
       0.039088774 -0.056476135 0.008328045 -0.04024122
000120 af a9 5e bc 96 58 39 bd 93 c0 04 3d e0 16 7e bc
       -0.01359026 -0.045250498 0.032410216 -0.0155083835
000130 fb 2b 4d 3d 31 43 0b bc fc c0 45 bd b4 e0 86 3d
       0.05009077 -0.008499906 -0.048279747 0.065858275
000140 02 a2 5b bd fd ba 87 bc fd fe 94 3c d3 0d 86 3c
       -0.0536213 -0.016568655 0.018187994 0.016364014
000150 5f 33 89 3c 08 f0 5b 3d c0 cc 94 3d 00 33 10 3d
       0.016748128 0.05369571 0.072656155 0.035204887
000160 27 32 4a bd 84 02 53 3d d4 b8 4d 3d 3f a0 6d bd
       -0.049364235 0.05151607 0.050225094 -0.05801415
000170 f1 f9 11 bd 7e 96 40 3a 86 17 77 bd 85 b9 f6 3c
       -0.035638753 0.0007346644 -0.060325168 0.03011776
000180 ec 78 65 bc 70 a8 08 3d 7c aa 2d 3d df 2c 5a 3d
       -0.014005881 0.03336376 0.042398915 0.05326545
000190 77 24 ec 3b b1 28 20 bd b2 83 dd 3c 7a 33 7b bc
       0.0072064954 -0.039101306 0.027040336 -0.015332097
0001a0 07 83 39 bc f6 9a 5b 3d 05 38 88 bd 59 d3 70 bd
       -0.011322743 0.05361458 -0.0665131 -0.058795307
0001b0 7e 58 ab 3c 72 58 92 bd f9 82 09 3d 79 17 2d bd
       0.02091622 -0.07145776 0.03357217 -0.042258713
0001c0 dc b5 50 bd 03 a0 c9 bc 52 30 0d bd fa 8d 08 bd
       -0.050954685 -0.024612432 -0.03446991 -0.033338524
0001d0 1a 12 fd bc a2 64 10 3d db 1e 2f bd 48 4a 1c 3d
       -0.03089242 0.03525222 -0.042754035 0.038156778
0001e0 a7 f3 7d bc d1 96 49 bd d3 55 8e bd 3a 04 07 bd
       -0.015499986 -0.049216095 -0.069499634 -0.032963015
0001f0 6b 6f a3 bc bb 25 64 bc fe 5a d0 3c 78 9b dc 3c
       -0.01995059 -0.013925011 0.025434013 0.026929602
000200 59 a9 2d be 87 5c 2c be 57 f9 f8 bd 43 63 09 3e
       -0.16959132 -0.16832171 -0.12156933 0.13416772
000210 26 d8 fe bc 4d c2 b1 3d 19 1b 9b bd dc 7b 90 3b
       -0.031108927 0.08679638 -0.07573528 0.0044092964
000220 a5 e0 17 be 22 1a 13 be 92 08 2e 3e c9 d4 b8 bd
       -0.14831789 -0.14365438 0.16995457 -0.090249605
000230 be 48 02 3e 8b b1 2c 3e 18 2d 13 bd a4 de 93 bd
       0.12723061 0.16864602 -0.035931677 -0.072202
000240 4c 71 20 3e 6f 1c 09 3e db b0 d4 bd 05 3a 15 be
       0.1566822 0.13389753 -0.10385295 -0.14572914
000250 5f b1 ce bd 2c 70 28 3e ea da 2d be 2e 37 9a 3c
       -0.100924246 0.1644904 -0.1697804 0.01882514
000260 3d d4 1f 3d b3 b0 95 bd d6 ad 96 bb f1 c2 13 be
       0.039020766 -0.07309093 -0.0045983596 -0.14429833
000270 3a e2 13 3e 77 53 24 3e 1c 3e 09 3e 1a 59 1b 3e
       0.14441767 0.16047464 0.13402599 0.15170708
000280 02 7d e8 3c 6b 8a 1d be 62 eb 27 be 94 1a a5 3d
       0.02837992 -0.15384834 -0.16398385 0.0806171
000290 cf 0e 37 bd 62 c1 2c be 30 42 fb bc d8 9c 70 bc
       -0.044691857 -0.16870645 -0.03067121 -0.014685832
0002a0 e4 d3 89 bd 47 83 9b 3b db dc b0 3d a2 53 67 bd
       -0.06729868 0.004745874 0.08635875 -0.056476243
0002b0 5f 93 c5 bc fc 7d 9a 3c ad 1c 2b 3e 88 ab 2f bd
       -0.024118124 0.018858902 0.16710158 -0.042888194
0002c0 5f ab f6 bc 24 77 11 be fe 45 b4 bd d6 58 c1 bd
       -0.030111013 -0.14205605 -0.088024125 -0.09440772
0002d0 d2 be 1b be 6b aa 26 be ae 3f 29 3d cc 12 83 3d
       -0.15209511 -0.16275947 0.041320495 0.064000696
0002e0 07 93 2a be a6 10 26 3c 18 9d d0 bc 72 74 0a be
       -0.16657649 0.010135805 -0.025465533 -0.13520983
0002f0 4c 05 0d be af 68 25 be d3 63 b7 bb b7 6d 2c be
       -0.13771552 -0.16153215 -0.005596617 -0.16838728

transformer_encoder.0.self_attn.multihead_attn.in_proj_weight f4 [192, 64]
000000 da 62 a2 3d 98 88 e6 3d 7a 04 dc bc 01 9a cc 3c
       0.07929011 0.11256522 -0.026857603 0.024975779
000010 74 96 99 be d6 18 87 3d 28 39 a4 be 3a 62 7b be
       -0.299976 0.06596534 -0.32074857 -0.24549189
000020 e1 1a 0f be f7 90 e2 bd da 9a f8 bd da e1 f9 3d
       -0.13975097 -0.11062806 -0.121389106 0.12201281
000030 5d 1f cc bc 79 99 46 bb b4 e9 35 3d 37 48 59 be
       -0.024917299 -0.003030388 0.04441233 -0.21218954
000040 2f 9f 74 3d 2e 3b af bd a6 b0 b2 bd ed 59 0b 3e
       0.05972212 -0.085562095 -0.08725099 0.13608523
000050 40 7f 80 3e fa d8 d7 bc 60 94 fd bd 3c a1 3c 3d
       0.25097084 -0.02634858 -0.12381816 0.046052203
000060 f7 4f 48 3e 8a 76 bb bd 58 19 6d 3e eb 46 25 be
       0.19561754 -0.09153469 0.23154199 -0.16140334
000070 05 b1 2f 3e 81 8c af bd ee 84 2b 3e 0c 2b 92 be
       0.17157371 -0.08571721 0.16749927 -0.28548467
000080 a7 e6 76 3c da 2d b7 3d fe f1 00 be 17 71 37 be
       0.01506964 0.08944292 -0.12592313 -0.17914234
000090 76 b2 f9 3c 40 02 b4 be a0 30 1d be bc fb 75 3e
       0.030480605 -0.35157967 -0.1535058 0.2402181
0000a0 e3 0d 25 3d 85 da 06 3d 51 57 91 be ac 6c 0c 3d
       0.040296447 0.03292324 -0.2838693 0.034283325
0000b0 67 cf 2b 3e 7c 48 88 3e b0 47 95 bd 21 c8 78 be
       0.16778336 0.266178 -0.07289064 -0.24295093
0000c0 b9 e0 9a 3e c3 55 3a 3d 5f 2e 71 be 60 e8 62 bd
       0.30249575 0.045491945 -0.23552845 -0.05539739
0000d0 34 b7 4c be 11 39 4e be 4b 9b 81 be 88 54 11 bd
       -0.19991761 -0.20138957 -0.25313792 -0.035481006
0000e0 3b be 26 be f4 5c ff 3d 61 94 05 be 93 b8 00 bc
       -0.16283505 0.12468901 -0.13044883 -0.007856506
0000f0 36 ec 5d bc 77 9e 09 3e bd 02 9b bd 54 91 d0 3d
       -0.013545087 0.13439356 -0.07568882 0.10183969
000100 93 d3 44 3e 90 7f bf bd 53 22 ce bd 81 4f d9 bd
       0.19221334 -0.093505025 -0.100651406 -0.10610867
000110 d5 09 85 bd c8 b9 b0 bd 6e 2c a6 be 3b 8e ac be
       -0.06496016 -0.08629185 -0.32455772 -0.33702263
000120 7d 6d 28 be 49 a0 0c bd b1 92 3d be df 22 5b 3e
       -0.16448016 -0.034332547 -0.1851299 0.21400021
000130 e7 90 06 3d 66 cf a0 bd 86 a2 90 3e 43 2e 85 be
       0.032853033 -0.07852058 0.28248996 -0.26011857
000140 4e 99 a5 3c 43 9e 1f be a4 ed 60 bd 4c c5 14 3e
       0.020214703 -0.15587716 -0.05491413 0.14528388
000150 8e 08 97 3e fc be 50 3e 3b b1 2a 3c 82 85 74 3e
       0.29498714 0.20385355 0.010418232 0.23879054
000160 13 c0 0b 3e fd c4 67 be 76 b0 03 bd 6e 82 03 3b
       0.13647489 -0.22633739 -0.03215071 0.0020066756
000170 08 9d 04 3e 00 48 8f bb 15 ce 87 3d 2b bd 00 be
       0.12950528 -0.0043725967 0.06631104 -0.12572162
000180 95 f0 2f 3d 27 4e 2b bd 72 80 3e 3c 46 71 29 bd
       0.042954046 -0.04182258 0.011627303 -0.04136779
000190 c1 31 86 3d 82 c8 35 be 63 67 a6 be e2 a1 34 3e
       0.065524586 -0.17752269 -0.32500753 0.17639878
0001a0 bb 06 10 bc f9 3a 82 3d 5f 4b 98 be 58 40 68 3c
       -0.008790667 0.063589044 -0.29745004 0.014175497
0001b0 aa f7 89 3e 84 57 bb 3e 1f 24 04 be 29 cd 13 3e
       0.26946765 0.36590207 -0.12904404 0.14433731
0001c0 15 85 fc 3d a1 5f 31 3d 0d b3 bb be 61 fe 6f 3c
       0.12330071 0.04330409 -0.36660042 0.014648051
0001d0 7b e9 dd bd 12 a6 22 be 23 b3 3f be 98 3a 1a be
       -0.108355485 -0.15883663 -0.18720679 -0.15061414
0001e0 a0 a8 7c be 87 d2 12 3e d4 1a 10 be df cc 94 bd
       -0.246737 0.14338122 -0.14072734 -0.072656386
0001f0 52 5c 2b 3e 14 e3 1e 3e 49 10 ac be 56 e5 b9 3d
       0.16734436 0.15516311 -0.33606175 0.090769455
000200 ae 05 17 be f4 fa 1e be e2 6f 29 3e e5 d5 ba bd
       -0.1474826 -0.15525419 0.16546586 -0.091228284
000210 69 77 d7 3d 1a 5e b4 bd fe 2d fa 3d 6b 0a 9b 3e
       0.105208226 -0.08807011 0.122158036 0.30281386
000220 02 d6 8a bb 33 c7 96 3e e1 ff fb 3d 0f e2 5d bd
       -0.0042369375 0.29448852 0.123046644 -0.054170664
000230 b5 a4 bd bd 52 75 e9 bd 23 96 ad be cf 96 0e 3e
       -0.09259931 -0.1139933 -0.33903608 0.13924716
000240 75 24 d5 3d 30 3a 6d 3e 2e 79 70 3e de 71 00 3e
       0.10407344 0.23166728 0.23483726 0.12543437
000250 b1 ae ab 3d ff 40 56 3e 8e d8 a1 3e 64 dc 37 bd
       0.08382929 0.20923232 0.3161053 -0.044887915
000260 8e 63 ab be 5b 8e 32 bd 0a fb 2b be a0 65 8e bd
       -0.33474392 -0.043592792 -0.16794983 -0.06952977
000270 cc 36 be be f5 12 38 3d ed 9d 56 bd 15 83 35 3e
       -0.37151182 0.044939954 -0.052396704 0.17725785
000280 96 9e 7e be 91 9d 9d 3c 8e 8a 60 3d 65 77 88 3d
       -0.24865183 0.019240173 0.054819636 0.06663398
000290 4e c2 89 be e6 dd 40 3d 57 42 49 3e 2b 16 42 be
       -0.26906055 0.04708662 0.19654213 -0.18953769
0002a0 18 49 c5 3d 1d 79 a1 3d ec af f9 3d 8c c4 9e 3d
       0.09633082 0.07884429 0.121917576 0.07752332
0002b0 22 2e ac bd 06 d3 3c be 82 df 10 bc dd 3d 01 3e
       -0.08407237 -0.18439874 -0.008842351 0.12621255
0002c0 9f 19 98 be e3 ef 3c be 65 01 47 3e b9 ac c9 3d
       -0.29707047 -0.18450885 0.19434126 0.09847397
0002d0 0a 6f f3 3d 7a c0 98 3e 2f 0b cd 3d 24 6c 21 3c
       0.118864134 0.29834348 0.10011899 0.009852443
0002e0 17 92 94 3d 3c 93 8c bd 34 fd 4f bb 46 99 d0 bd
       0.07254427 -0.0686402 -0.0031736614 -0.101854846
0002f0 d7 54 05 3e 22 a5 03 3e bb 65 9e 3e b8 37 2a 38
       0.13020645 0.12855962 0.3093699 4.058305e-05
000300 df 67 42 be 93 1f 00 3c 91 04 2f bc c0 98 46 bc
       -0.18984936 0.007820028 -0.010682241 -0.012121379
000310 2a 15 9f 3d 0d 0b 27 3e e4 e3 52 3e fb 90 e0 3d
       0.077677086 0.1631281 0.20594746 0.10965153
000320 fb 2c 30 3e 7d 19 96 3e ee 23 48 bd ec 72 85 be
       0.17204659 0.2931632 -0.04886239 -0.2606424
000330 ac 44 5a 3d 58 f5 aa bc d1 81 25 be d2 a4 a2 3d
       0.053288147 -0.020868942 -0.16162802 0.07941593
000340 c0 d5 54 3d 5b aa 83 3e ce 79 86 3e 83 25 38 be
       0.05196166 0.25715908 0.26264805 -0.1798306
000350 c7 e1 8b be 0f a3 b4 bd a9 d8 1d 3e 4f 4b 97 be
       -0.27320692 -0.088201635 0.1541468 -0.29549643
000360 4d df 0e be f8 ca 88 3e ba af 53 3d 45 de d1 3d
       -0.1395237 0.26717353 0.051681258 0.10247473
000370 bb 13 ea 3c dc ab 2f be 45 f8 b6 3c 80 3d a7 3e
       0.028573861 -0.17155403 0.022335181 0.32664108
000380 81 8b 28 3e d1 90 c5 bc 04 0b 17 3e f3 72 87 3e
       0.16459467 -0.024116905 0.14750296 0.26454887
000390 f1 8a 08 bc b8 c9 9c 3e 7b 38 37 3e 7c 05 90 be
       -0.008333907 0.3062265 0.1789264 -0.28129184
0003a0 6f 26 1d 3e f3 c8 13 3e 3e 82 7b 3e 08 38 1b 3c
       0.15346693 0.14432125 0.24561402 0.009473808
0003b0 06 be a8 be 9f b3 6c be 9b 9e 67 3e 33 88 e5 3b
       -0.32957476 -0.23115395 0.22619097 0.0070047616
0003c0 04 b2 6a be fe de 19 3e 43 37 69 3e cc 9f 1f be
       -0.2291947 0.15026471 0.22774987 -0.15588301
0003d0 eb 0a fa 3d 9d bd 83 3e 3d f5 26 3e 94 79 c0 bd
       0.12209114 0.257306 0.16304488 -0.09398189
0003e0 72 95 7e 3e f4 42 0c 3e 05 91 ef 3c 89 be cb bc
       0.24861696 0.13697416 0.029243955 -0.024871128
0003f0 3e 4a b2 bd 17 a2 5c 3d 50 96 21 3d d5 9c 54 be
       -0.08705567 0.05386552 0.03944999 -0.20762952

transformer_encoder.0.self_attn.multihead_attn.in_proj_bias f4 [192]
000000 f6 63 fa bd 9a 2d b5 bd 3e 96 02 3e 86 48 eb 3d
       -0.12226097 -0.088465884 0.12752625 0.11488442
000010 da aa f8 3d 5f 62 06 3e c1 aa bb 3d 33 5a f6 3d
       0.12141962 0.13123463 0.09163428 0.12028923
000020 da 16 02 3e a3 22 f5 bd fd 40 bf 3d f4 20 bb 3d
       0.1270403 -0.11969497 0.093385674 0.09137145
000030 bc aa 12 be db 33 d9 3d f6 07 00 3e 3c 67 e5 bd
       -0.14322942 0.10605594 0.12503037 -0.11201331
000040 b4 b5 a8 bd 41 c7 bf bd 0c 6a 1d be 74 e6 a3 3c
       -0.08237782 -0.093641765 -0.15372485 0.02000735
000050 61 3d 21 be 18 6b 18 be ed 7d 3c bd 21 d4 cc 3b
       -0.1574607 -0.14884603 -0.04601853 0.0062508737
000060 06 4e 95 bd 3e 5b a0 bd 57 fd 25 be 89 97 c1 3d
       -0.072902724 -0.07829903 -0.16209923 0.09452731
000070 56 03 df 3b 18 ba 0c 3e a5 f0 2c bd ad 61 11 3e
       0.0068058176 0.13742864 -0.042221684 0.14197417
000080 5e 55 11 3e 65 c4 10 3e 45 d6 61 bd ca ca 24 3e
       0.14192721 0.14137419 -0.055135984 0.16092983
000090 a3 bd 0f 3e 51 86 24 3e 80 3b 0d be b0 11 67 3d
       0.14037184 0.16066863 -0.13792229 0.056413352
0000a0 1d 5f 73 3d 16 3b 25 be 3e b2 88 bd 41 e1 2c be
       0.05941688 -0.16135821 -0.06674622 -0.16882803
0000b0 78 3c 0f be ce 33 1f be e7 59 99 bd 7d c8 9d bd
       -0.13987911 -0.15547106 -0.07487851 -0.07704256
0000c0 f0 f8 0b 3e 5d 45 f8 3d cb bd 67 3c d5 ed 95 bd
       0.13669181 0.12122605 0.014144371 -0.073207535
0000d0 82 db 9f bd 12 c7 0c 3e a3 a3 db 3d 2b 7a 14 be
       -0.0780554 0.13747814 0.107245706 -0.14499728
0000e0 77 43 4f be 54 70 27 3e 36 5e c2 3c a7 be 9c bd
       -0.2024058 0.16351444 0.023726564 -0.076535515
0000f0 8a c0 e7 3d db 63 33 3e 40 dc 0a bd f7 df 7c bd
       0.11316021 0.1751856 -0.033901453 -0.061737027
000100 5f a3 85 3c ea ed e9 3c d8 47 db bc fe 92 e2 bc
       0.016313253 0.02855583 -0.026767656 -0.027657982
000110 b8 80 19 bd a3 fe d8 bb 16 1d ef bc 64 4c 0c bd
       -0.03747627 -0.006622152 -0.029188674 -0.03425254
000120 b2 b2 88 bc 3c 4f 68 3c b2 8a 04 3d 8f 25 27 3c
       -0.016686771 0.014179047 0.032358833 0.010201826
000130 55 8d 7b 3c cb 7e 16 bd 0c f3 01 bc 66 64 bc bc
       0.01535352 -0.036742013 -0.007931482 -0.022997092
000140 30 8b ae 3c ad 8a 4b bc 59 c1 20 3d 00 a1 c4 3c
       0.021306604 -0.0124232 0.03924689 0.024002552
000150 ae 58 ef 3c 92 e3 d7 3c a9 bf 46 3d 51 7c f4 bc
       0.02921709 0.026353631 0.048522625 -0.029844435
000160 3b bd eb bc 11 6b 98 3c a5 4e 02 3d 3b 16 85 bc
       -0.028776756 0.01860574 0.031813283 -0.016245952
000170 4f f4 26 bd 37 41 94 bc b1 30 e8 bc 6e fe 0d bb
       -0.040760335 -0.018097503 -0.02834353 -0.0021666544
000180 d7 1a aa bd a8 65 ad bd 19 7c aa bd fb aa ff bc
       -0.083059005 -0.08466655 -0.08324451 -0.03120946
000190 c7 f5 d0 ba 5a 2e 6b bd d7 77 c0 bc 3e 02 7c 3c
       -0.0015942388 -0.05741725 -0.023494644 0.015381394
0001a0 06 75 84 3c 81 56 70 3d 74 ac 51 3d ad 3f bd 3d
       0.016169082 0.058676247 0.051189855 0.09240661
0001b0 b7 7e ae 3d 49 29 83 3d 13 d4 94 bd 25 cc 4e bd
       0.08520263 0.06404359 -0.072670124 -0.050487656
0001c0 f6 13 e5 ba 19 b1 7a bc 6a 3d 9f bc 0c 5d 70 3c
       -0.0017477262 -0.015301012 -0.019438464 0.014670622
0001d0 65 62 a9 bc 1b 54 f6 bb e3 4c fb bb 68 87 46 bc
       -0.020676801 -0.0075173504 -0.0076690777 -0.012117244
0001e0 06 49 a7 3c af 75 0f bd f4 f5 c0 3c c6 a9 d2 bb
       0.020420562 -0.03502434 0.02355478 -0.00642893
0001f0 97 5b 78 bc 5b 69 9c bc d7 07 ca 3c 06 5d 95 3c
       -0.0151585555 -0.019093206 0.024661941 0.018232834
000200 da bb 0f 3e 16 6c e8 3d 87 69 2d 3e 1b 20 2d be
       0.14036503 0.11348741 0.16934787 -0.16906779
000210 a0 04 7d bd f3 69 dd bb 48 81 23 be 4b 74 2b 3e
       -0.06177199 -0.006757015 -0.15967286 0.16743581
000220 15 a0 2d 3e 0b 95 f2 3d f7 9b 16 be 2c 97 e9 3d
       0.16955598 0.11844834 -0.14707933 0.11405787
000230 1d 26 b6 3d 31 41 f4 3d 09 7f 22 be a8 70 b0 3d
       0.08893988 0.11926497 -0.15868773 0.086152375
000240 51 f4 9e 3d 69 f6 09 be 70 31 04 bc 27 3b 28 3e
       0.077614434 -0.13472904 -0.008068427 0.16428815
000250 a5 3a a2 bd 2e 94 40 bd d3 4a 05 3d 42 9f 60 3d
       -0.07921342 -0.047016315 0.03254206 0.05483938
000260 5e eb 1c be 9f 18 24 3e 19 a1 16 3e b3 fe 55 bd
       -0.1532416 0.16025017 0.14709891 -0.052244853
000270 30 f5 92 3d b8 24 b1 bd 78 66 2d 3d 66 40 f7 3c
       0.07175672 -0.08649582 0.04233405 0.030182075
000280 43 04 48 3c ee 82 a2 3c f7 a3 97 bc a1 ab 2e 3e
       0.012208047 0.019837823 -0.018510802 0.17057659
000290 74 b9 fc bc f4 8f 15 3e 4c b8 c0 bc 8f 99 19 be
       -0.03085015 0.14605695 -0.02352538 -0.14999984
0002a0 bb 64 81 bc b0 6d 9c bc f7 f9 13 3e 53 0f 2a 3d
       -0.015795102 -0.019095272 0.14450823 0.04151852
0002b0 ab c8 df bd c4 30 af 3d 23 08 67 bd 30 c5 a2 bd
       -0.10926946 0.08554223 -0.056404244 -0.07947767
0002c0 00 48 2d be 8f c2 09 bc b2 27 e3 bd 10 6b 0a 3e
       -0.16921997 -0.008408203 -0.11091556 0.13517404
0002d0 b1 31 f0 3c f6 79 25 3e 63 a4 10 3c 32 b7 66 3d
       0.02932057 0.16159806 0.008828255 0.056327052
0002e0 50 52 07 be 63 89 01 bd 9e 7e ab bd 7f 41 79 3d
       -0.13214993 -0.031625163 -0.0837376 0.060853478
0002f0 57 70 14 be 56 49 42 3d 32 60 2e 3e ff bb 12 3e
       -0.14495979 0.04743322 0.17028883 0.14329527

transformer_encoder.0.self_attn.multihead_attn.out_proj.weight f4 [64, 64]
000000 6c fa 6b be ec ac 8a 3c 3a 53 f7 bd d5 e7 c9 3c
       -0.23044747 0.016928159 -0.12076421 0.024646679
000010 37 6c 89 bd 01 e0 21 be 5a bb 06 3e 7a 43 00 be
       -0.067100935 -0.15808107 0.13157406 -0.1252574
000020 b5 5b d5 bd ea 55 35 3e 57 c3 80 3e 78 9b 6a be
       -0.10417882 0.17708555 0.25149032 -0.22910869
000030 d8 3d ec bd 13 a9 11 be e2 eb 80 3e 6f 15 28 3e
       -0.11535233 -0.14224653 0.25179964 0.16414426
000040 66 bc 03 3d 89 da 07 3e 0b 5b 4a 3d cc 9a bc bc
       0.032162093 0.13266958 0.04940323 -0.023023032
000050 a2 e5 3d 3d 2e 57 4d 3e c5 e5 d5 39 eb d4 cd 3d
       0.046361573 0.20052788 0.00040797718 0.100503765
000060 ce b0 32 3e 8f d6 b8 bd fd 01 b6 3d 14 87 57 be
       0.17450258 -0.09025299 0.08887098 -0.21047622
000070 5a 6a 40 be 1b 51 06 3d f7 f4 5d be 58 a3 6f 3e
       -0.1879057 0.032792192 -0.21675478 0.23402154
000080 da d3 16 bd 93 d5 c2 bc 84 f9 87 bc bf d6 80 3d
       -0.03682313 -0.02378348 -0.01659847 0.062909596
000090 b6 ea 6a be a2 a3 7d 3d b6 63 83 3e 3f e9 0a 3d
       -0.22941098 0.06192363 0.2566201 0.033913847
0000a0 71 5b 1c be 5f 37 85 bd c7 13 d7 bd 34 1b c4 3c
       -0.15269257 -0.06504702 -0.10501819 0.023938753
0000b0 fa 5e 04 be e5 49 13 3d 43 05 f0 3c 31 2a 16 bd
       -0.12926856 0.035959143 0.029299384 -0.03666133
0000c0 6d a7 1f 3c f8 08 82 3e 15 67 93 3a 52 2d f8 bd
       0.009744507 0.25397468 0.0011245931 -0.12118019
0000d0 82 f1 73 be d9 46 28 bd 5b f2 1f bd 69 b4 5c be
       -0.23822597 -0.04108319 -0.039049488 -0.21553196
0000e0 46 50 bb bd 3d 87 92 3d 4f 95 20 3e 35 68 5a 3e
       -0.0914617 0.07154701 0.15681957 0.21328814
0000f0 18 39 5d 3d b6 d7 34 be 60 b7 80 be 68 d1 43 be
       0.054009527 -0.17660412 -0.25139904 -0.19122851
000100 74 cf 6b 3d a9 65 f4 3d 14 ee bc 3c 31 92 84 3e
       0.05757089 0.11933453 0.023062743 0.25892785
000110 4b d3 b2 3d a0 12 10 3e 35 29 9d bd 88 06 30 3e
       0.08731707 0.14069605 -0.07673875 0.17189991
000120 ce 57 fd 3c db 29 7a 3d 82 76 10 bd be 84 3e 3e
       0.030925658 0.061075073 -0.035269268 0.18605325
000130 08 53 1f be 26 c6 de 3d e3 f9 31 be aa 19 75 be
       -0.15559018 0.108776376 -0.1738048 -0.23935571
000140 de 37 c5 bd 79 2e f1 bd 4d ea f7 bb e4 6f 43 bc
       -0.096297964 -0.11776442 -0.0075657726 -0.011928532
000150 68 41 75 bd 30 58 53 3b e6 f9 85 be ce 0e 2f be
       -0.05987683 0.0032248609 -0.2616722 -0.17095491
000160 4d bb 10 bd 1b 30 d4 3d 3b bd 62 be d0 2d 1b 3e
       -0.035334874 0.10360738 -0.22142498 0.15154195
000170 a1 1e b8 3d 0f 10 6d be f4 45 ca 3d ff 7f ac bd
       0.08990217 -0.23150657 0.09876624 -0.08422851
000180 ae 02 28 bd 70 ab 7e be 84 ab 82 be 2c 76 40 3e
       -0.04101818 -0.24870086 -0.2552148 0.18795079
000190 df 64 4e 3e 9f 07 2e be 41 b7 a1 3c 73 e2 9c 3d
       0.20155667 -0.16995095 0.019740703 0.07660379
0001a0 6d 7a 49 3e 95 8c 42 3e 72 b2 e6 3d 53 13 83 3e
       0.19675608 0.1899894 0.112645045 0.2560068
0001b0 4e 28 63 3e e7 a6 54 be cb f9 ba 3c 22 26 4b 3e
       0.22183344 -0.20766793 0.022824189 0.19838765
0001c0 9b 34 3b be 3b 98 15 be 85 d2 37 be e3 4e 4d 3e
       -0.18281786 -0.14608853 -0.179514 0.20049624
0001d0 04 e6 94 3d fd 9e 60 be 76 ef d1 3d f2 2c 4e 3e
       0.072704345 -0.21935649 0.10250752 0.20134333
0001e0 d3 78 5c 3d f0 b4 a4 bd 3c eb d0 bd 62 fc 0b be
       0.053826164 -0.080423236 -0.102011174 -0.13670495
0001f0 06 fa 8e 3c 6f 66 37 3d e5 5b 2a be e1 46 1d bc
       0.017453205 0.044775423 -0.16636617 -0.009599418
000200 8c 1b ec bc e7 2a c9 3d 70 15 bb 3d cb 52 10 3e
       -0.02882173 0.09822636 0.09134948 0.14094083
000210 c8 63 70 3d 43 1c 9a 3d eb bc 94 3d e2 cf 38 3c
       0.05868891 0.07524922 0.07262596 0.011280032
000220 0a 0f 54 3e 89 5e 9b bc 15 b2 60 bd fd 5c 7a 3d
       0.20708862 -0.018965976 -0.054857332 0.061123837
000230 f6 de 41 be 32 3a ef 3d 98 bf e2 bd 88 32 54 be
       -0.18932709 0.11681022 -0.110717 -0.20722401
000240 71 8f 69 be a5 8b 3e be 47 ff be 3c aa 92 21 3e
       -0.22808625 -0.18607958 0.023315085 0.15778604
000250 dd 25 1e be bd 64 1e be 6d e6 0e be 85 7b 03 be
       -0.15444131 -0.15468116 -0.13955088 -0.12840088
000260 e5 fc 5f bd 7a 96 0a 3e 0c af 6d be 12 5c 14 3e
       -0.05468454 0.13533965 -0.23211306 0.14488247
000270 02 96 bf 3c 51 49 30 be 8b ee 26 3d 0e 60 8b bd
       0.023386959 -0.17215468 0.040754836 -0.0680543
000280 24 ac 49 be 12 85 1a be 71 74 4d bd 9d 63 b3 3d
       -0.19694573 -0.15089825 -0.050159875 0.08759234
000290 62 72 84 3e 46 f8 54 bd 16 86 59 be bf 89 25 bc
       0.25868517 -0.051994585 -0.21242556 -0.010103642
0002a0 22 18 ff 3c fd 57 16 3e 9c d5 b4 bc c6 ed 30 3e
       0.031139437 0.14682002 -0.022074513 0.17278203
0002b0 16 6d 0e 3e dc b9 39 be 54 60 15 be a9 fe 07 3e
       0.139088 -0.18137306 -0.14587528 0.13280739
0002c0 78 34 41 be 46 66 53 bd b4 b5 50 be b9 43 f7 3d
       -0.18867671 -0.051611207 -0.20381814 0.12073464
0002d0 2e 2e 23 3e 77 51 bd bd 40 97 83 3e d9 85 53 3e
       0.15935585 -0.09244054 0.25701332 0.20656528
0002e0 39 aa 63 3d 55 a7 6b be 0a 97 ac 3d 7e 50 0a be
       0.05558226 -0.23013051 0.08427246 -0.13507268
0002f0 7c 62 19 be 25 1f 15 bd d0 73 ea bd 9c b2 cb 3d
       -0.14978975 -0.036406655 -0.11447871 0.099461764
000300 12 92 02 3d f9 70 81 be 1c 95 c2 3c d0 62 81 be
       0.031877585 -0.25281504 0.023752742 -0.252707
000310 51 eb 4b be ef 8b 82 bd 38 97 15 3e 6b e2 43 be
       -0.19913985 -0.063743465 0.14608467 -0.1912934
000320 e8 12 3a be 28 1a a5 bd d6 6b af 3d 5a ee dc bc
       -0.18171275 -0.080616295 0.0856549 -0.026969124
000330 ef 72 4c 3e 5b 44 13 3c 89 6d 6b 3d 3e d7 b7 3d
       0.19965719 0.008988465 0.057477508 0.08976601
000340 25 ae f3 3d 21 d3 dd 3d 5f 58 9b 3d 1a f8 87 bd
       0.1189845 0.10831285 0.07585215 -0.066391185
000350 41 b7 b7 3d c9 bf 3b 3d 3d c1 df 3d 1f f4 95 3d
       0.089705 0.045837197 0.10925529 0.07321953
000360 28 13 b0 3d be d3 55 be ec e6 54 3e ee 67 17 be
       0.08597404 -0.20881554 0.20791215 -0.1478574
000370 38 0e c7 3b cb 4f 8f 3d fe 51 66 be 3b 23 cf 3d
       0.006074693 0.06997641 -0.22492215 0.101141416
000380 f2 e6 20 3e 1f ef b7 3d 13 eb 66 3d 41 4a 4a be
       0.15713099 0.089811556 0.056376528 -0.19754888
000390 48 75 0f be 63 4d 6a 3e 59 ab d6 3d d3 a4 44 be
       -0.14009583 0.22881083 0.10481901 -0.192035
0003a0 a0 c9 c7 bd 23 72 75 be 45 dc 25 bd bc d0 3e bd
       -0.09755254 -0.23969321 -0.04049327 -0.046585783
0003b0 ec 53 71 be d5 85 04 3d 17 59 3c 3e 9a 97 7f be
       -0.2356717 0.032354195 0.1839336 -0.24960175
0003c0 3c fb 43 3d ba 49 0f 3e 6e 39 88 3e 92 9f 13 bd
       0.047847018 0.13992968 0.26606315 -0.03604085
0003d0 72 fa 1f 3d e8 c7 00 3e a0 ed 51 be a4 b7 11 be
       0.039057203 0.12576258 -0.20500803 -0.1423021
0003e0 7f 6a 64 be a7 33 53 3e 7f 7d 82 bc ac 3e 26 3c
       -0.2230625 0.20625173 -0.015928982 0.010146778
0003f0 d7 07 a7 3c 02 08 9e 3b 31 e3 9d 3d 03 e6 35 bd
       0.02038948 0.004822732 0.07709349 -0.04440881

transformer_encoder.0.self_attn.multihead_attn.out_proj.bias f4 [64]
000000 62 df 2e 3e 5e 03 07 bc ab 35 5b bc 71 b9 dc bc
       0.17077401 -0.008240549 -0.013379495 -0.026943894
000010 bf 61 ba bc f4 37 2e 3e 46 d4 c9 bc c1 68 13 bd
       -0.022751687 0.17013532 -0.024637353 -0.035988573
000020 13 d3 11 3e 96 8e 68 bd 52 cc 64 bd 08 e3 de bc
       0.14240675 -0.056776606 -0.055858918 -0.027207866
000030 d9 fb da bd 39 6c 2e bd 1c 4b 91 3d 66 a9 2a 3e
       -0.106925674 -0.042583678 0.07094404 0.16666183
000040 a4 01 41 3c ad fa 61 3d 0c e1 8b bd 1b f1 2d 3e
       0.011780176 0.055170704 -0.06830034 0.16986506
000050 03 90 7e bd 6c 6d 6e bd ed 80 0f bd 45 eb 2d 3e
       -0.06214906 -0.05820982 -0.035035063 0.1698428
000060 79 f2 26 3e 47 1d be bd f1 6a 25 3e 4f 0c 2e 3e
       0.16303433 -0.09282928 0.16154076 0.16996883
000070 db f2 a4 bd 49 30 b0 bd f1 a5 b8 3d d4 52 de bc
       -0.080541335 -0.0860296 0.09016026 -0.027139105
000080 1c 15 97 bd 09 4c 95 bd 25 f3 3e bc 04 3b 9e bd
       -0.07377073 -0.07289893 -0.01165465 -0.077261
000090 01 c4 01 bd f7 13 2d 3e be 56 98 3a 64 1d 2e 3e
       -0.031681065 0.16902147 0.0011622531 0.17003399
0000a0 91 01 02 bd 4c ab 89 bd d1 43 84 3c f0 e7 28 3e
       -0.031739775 -0.067221254 0.016145619 0.16494727
0000b0 82 60 24 3e 91 56 8f 3d 31 8c 78 bd f7 57 a9 bd
       0.1605244 0.06998933 -0.060680572 -0.08268731
0000c0 8a 77 0d bd 86 c2 c0 bd ee 43 21 3e e9 4d c9 3c
       -0.03453783 -0.094121024 0.1574857 0.024573283
0000d0 08 13 c2 bc d1 2b 32 bd a1 f5 cd 3d dc 06 a4 bd
       -0.023690715 -0.043498818 0.100566156 -0.08009121
0000e0 ae 38 2a 3e d1 c6 1b bc d8 6c aa bd f9 a6 12 3e
       0.16623184 -0.009507851 -0.083215415 0.14321508
0000f0 32 0e 2b 3e 74 61 fa bb 16 8d 2d 3e 7a 6c 2d 3e
       0.16704634 -0.007641012 0.16948351 0.16935912

transformer_encoder.0.linear1.weight f4 [314, 64]
000000 81 cb 5f be ae 5a a5 3c d8 de 28 3e 9e 13 49 be
       -0.21854974 0.020184841 0.16491258 -0.1963639
000010 94 64 4c be cf 51 a6 bd 37 4f 6e 3d 44 be c3 bd
       -0.19960243 -0.081210725 0.058181014 -0.09557775
000020 92 e9 8c bd e2 91 a6 3d ac fa 3a bd 0c b1 d2 3c
       -0.068804875 0.08133294 -0.045649216 0.025719188
000030 5d 21 56 be 0c 5e 15 be 42 41 ac 3d 3d 94 9a 3d
       -0.20911165 -0.14586657 0.084108844 0.075478055
000040 f7 92 3c 3e cf 02 e8 bd 88 ae 0c 3b ea 4d b6 bc
       0.18415438 -0.11328661 0.0021466333 -0.02225395
000050 ad a5 41 3e ee 2e 82 bd 25 c0 6a 3e df 19 ff bd
       0.18910857 -0.063566074 0.2292486 -0.124561064
000060 d2 00 50 bd fc 42 70 be 6f 98 e6 bd a3 d3 20 bd
       -0.050782032 -0.23463053 -0.11259543 -0.039264333
000070 22 d0 3d be 95 32 83 bd 15 40 10 3e 12 2d 86 be
       -0.18536428 -0.06406132 0.14086945 -0.2620626
000080 97 3f 64 be 05 14 c9 bd 70 5a 67 3e 58 6e b3 bd
       -0.22289883 -0.098182715 0.22593093 -0.08761281
000090 fb 5b 7d 3e 6e 51 f4 bd 29 5b 9a 3c 63 3e 68 bd
       0.24742119 -0.11929594 0.018842297 -0.05670012
0000a0 70 84 56 be 99 f9 15 be e9 7a 5b 3e 1f 80 22 be
       -0.20948958 -0.14645995 0.21433605 -0.15869187
0000b0 66 c5 85 bd f7 df e5 3d 7e 12 82 bd 15 84 16 be
       -0.065317914 0.112243585 -0.06351183 -0.14698823
0000c0 93 67 85 3e f8 35 4d bd 6e e7 3a bd e5 ea 8b 3d
       0.26055583 -0.050100297 -0.045630865 0.06831912
0000d0 e8 43 04 3e e4 71 47 be e5 0a 98 3d 32 e9 94 be
       0.12916529 -0.1947704 0.07423953 -0.29084164
0000e0 c0 5e d4 bd 1b 5c 90 3e db dc ab bd 86 21 8a bd
       -0.10369635 0.2819527 -0.08391734 -0.06744675
0000f0 50 9a 3c be e8 c1 39 bd 88 9a a0 bc 21 f5 33 be
       -0.1841824 -0.04535094 -0.019604936 -0.17573978
000100 8c a1 50 3d 90 0d 2e 3c 8c 62 8c 3d ea 99 ea 3d
       0.050935313 0.010623351 0.06854734 0.11455138
000110 18 c0 d9 bd 4c 70 97 3d b8 7c db 3d 0c b5 09 3d
       -0.10632342 0.07394466 0.107171476 0.033619925
000120 c0 ea 7e bb f0 61 43 3d 30 b0 8a 3c 5a 5a 9f 3d
       -0.0038897246 0.047700822 0.016929716 0.07780905
000130 20 58 25 bc 40 ce b4 bd 40 f3 ee 3b f8 0f 0d 3d
       -0.010091811 -0.088284016 0.0072921813 0.034439057
000140 ba 00 f4 bd 10 b4 f4 bc 0c 80 ad bd 10 0e 6b 3c
       -0.11914201 -0.029871017 -0.08471689 0.0143466145
000150 0e 0d b3 bd 10 b8 03 bc 78 a1 4f 3d 94 42 36 3d
       -0.08742724 -0.008039489 0.050691098 0.044497088
000160 6a 16 b9 bd 60 79 0c bc f4 01 ea 3d c8 cb d9 bd
       -0.09037478 -0.00857386 0.11426154 -0.10634571
000170 48 a0 27 3d 2e d2 9a bd a0 c2 f6 bc a8 28 5e bd
       0.04092434 -0.0755962 -0.030122101 -0.05423799
000180 a8 7b bd 3d 50 ca 38 3d 6a f5 ac bd 86 53 e1 3d
       0.09252101 0.045114815 -0.084452465 0.11002259
000190 d8 44 88 bd 88 fd a5 bc 28 7a b8 bd 86 62 a0 3d
       -0.06653756 -0.020262495 -0.090076745 0.07831292
0001a0 b8 f1 a1 bc ce a8 b5 bd fe 69 9c bd 8c 77 ef 3d
       -0.01976858 -0.088700876 -0.07637404 0.11692724
0001b0 72 0d c5 3d 60 ed 80 3d ee 8b df 3d 60 60 7e 3d
       0.09621705 0.06295276 0.10915361 0.06210363
0001c0 28 4f 9c 3d 42 90 c5 3d c0 3d 07 bc 68 d6 fa 3d
       0.07632285 0.096466556 -0.008254468 0.12247926
0001d0 1c d3 c9 3d e0 88 73 3d 1a 24 82 3d 26 67 9e bd
       0.09854719 0.059456706 0.06354542 -0.07734518
0001e0 64 e8 1d bd 7a 21 e7 bd 9c a0 8a 3d 00 34 95 b9
       -0.038551703 -0.11285682 0.06768915 -0.00028458238
0001f0 3c 95 2b 3d 3c 1e ba bd 16 6c f5 3d b0 74 95 3c
       0.041890368 -0.09087798 0.119835064 0.018244117
000200 7e 96 8e 3d 9b b9 37 be 78 ac 57 be f3 81 03 3e
       0.06962298 -0.17941897 -0.21061885 0.1284254
000210 17 f6 ea 3d db 07 4f 3e 05 81 cf bd c4 7e 01 3e
       0.11472719 0.2021784 -0.101320304 0.12646013
000220 6e 7c 0c 3d 8c d5 c3 bd e5 5e 36 3c 91 34 44 bc
       0.034298353 -0.09562215 0.011131023 -0.011975423
000230 47 ab 28 3d fa 90 52 bc 19 09 0c be e4 48 92 3c
       0.041178968 -0.012851948 -0.13675345 0.017857023
000240 ae 50 55 be 64 41 40 3e 4b ad 49 be aa aa e7 3d
       -0.20831558 0.18774945 -0.19695012 0.113118485
000250 67 59 04 be e0 2b 38 be 3b a4 57 be 08 7a 4d 3e
       -0.1292473 -0.17985487 -0.21058743 0.20066082
000260 17 30 1f 3c a7 2e 2d 3d 79 8b 37 3c f9 0f 00 3d
       0.009716055 0.04228082 0.0112026865 0.031265233
000270 9f ed 5d 3e a1 9b bb 3b 52 ec 5d be c8 02 51 3e
       0.21672677 0.0057253395 -0.2167218 0.20411217
000280 cd fa c7 3a eb 1f 25 3e 93 9d 22 be 7d cd ff 3d
       0.001525724 0.16125457 -0.15880422 0.12490366
000290 bb a1 79 bd 19 13 46 3e cb 3f 2d be a1 46 f1 3d
       -0.060945254 0.19343223 -0.16918866 0.117810495
0002a0 d8 bc 46 3d b2 3e ae 3d a6 4f 49 be bb 50 24 3e
       0.04851994 0.08508052 -0.1965929 0.16046421
0002b0 7d e4 35 3e 1a d8 5f bd 3f cd fd 3c 2d fe a8 3d
       0.17762943 -0.05464945 0.030981658 0.08251605
0002c0 67 2c 62 3a 33 d0 2f 3d 43 02 89 3c 1d 87 64 be
       0.0008627832 0.042923164 0.016724711 -0.22317167
0002d0 f6 b8 1c bd 8e e7 b7 3d 00 45 fb bd e8 d3 57 3e
       -0.03826233 0.089797124 -0.1226902 0.2107693
0002e0 67 ef 26 3c 66 9b 4c be 9d bd 13 3e c9 cf 56 3e
       0.010188914 -0.19981155 0.144278 0.20977701
0002f0 6d 02 39 3e 83 f5 bb bd 48 9c a5 3d ae 3b c3 3d
       0.18067332 -0.09177687 0.08086449 0.09532867
000300 f9 b3 f8 bd 17 4e 26 3d 32 f1 1c 3e 5c 41 1b bc
       -0.12143702 0.040601816 0.15326384 -0.009476032
000310 af 7a c1 bc dc 1f 1a be af ff 9d 3d 31 9b 23 be
       -0.02361807 -0.15051216 0.077147834 -0.1597717
000320 6e b4 eb bd 4b ba 5a 3e 98 17 e9 bd a3 3a 4d 3d
       -0.115090236 0.21360128 -0.11381453 0.05010475
000330 2c fb 68 be 3b 9d 05 be 58 aa 2e 3e b0 89 09 be
       -0.22752064 -0.1304826 0.17057168 -0.1343143
000340 17 fa 2d 3e 6f 27 87 bc ba 83 58 3e 10 e8 af bd
       0.16989933 -0.016498296 0.21144 -0.08589184
000350 6a 8d 64 3d bb 29 6b 3e 28 6c da 3d 07 76 7f bd
       0.055798925 0.22965138 0.106651604 -0.06236842
000360 06 71 27 be 13 a1 eb bd b9 cf 15 be 8b 91 22 be
       -0.16351709 -0.11505332 -0.14630021 -0.15875833
000370 1f 03 60 be f2 78 72 be 80 19 d1 3d a8 5b aa bc
       -0.2187619 -0.2367895 0.10209942 -0.020795658
000380 19 57 f1 bd b9 4d 81 bd ea 29 41 3e e5 f0 29 3c
       -0.11784191 -0.063136525 0.18863645 0.010372375
000390 f3 9a 33 3e 6b 53 0d be 98 7d 49 3e 4f 24 ec bd
       0.17539577 -0.13801353 0.19676816 -0.11530363
0003a0 3a 6b 18 be d9 81 8f bc 85 a1 58 3e 10 1c 31 bd
       -0.14884654 -0.01751797 0.21155365 -0.043239653
0003b0 95 56 ec bd ff ed 93 3c f2 4b 19 3c 3c 3e 0a be
       -0.11539952 0.018057821 0.009356486 -0.13500303
0003c0 59 fb 41 3e 79 19 23 bd b9 78 e5 bd de 9f 6c 3e
       0.18943538 -0.039819214 -0.11204667 0.2310786
0003d0 5f cf 05 3e 1c 5d 66 be 78 2f d1 3d 88 2d 2c 3c
       0.13067387 -0.22496456 0.10214132 0.010508902
0003e0 1a 2f 61 be 3e 51 29 3e 2c 05 5f be ef fb 39 bb
       -0.21990624 0.16534898 -0.21779317 -0.0028378924
0003f0 eb 21 41 be 04 dc 95 3d 09 a2 e4 bc 5b 39 1f be
       -0.18860595 0.07317355 -0.027909296 -0.15549223
